…
	Batch size per gpu: 16
	World size (gpu number): 1
	Require iter number per epoch: 2037
	Total epochs: 246; iters: 500000.
2024-03-05 09:29:36,383 INFO: Dataset [PairedImageDataset] - set5 is built.
2024-03-05 09:29:36,383 INFO: Number of val images/folders in set5: 5
2024-03-05 09:29:36,383 INFO: Dataset [PairedImageDataset] - set14 is built.
2024-03-05 09:29:36,383 INFO: Number of val images/folders in set14: 14
2024-03-05 09:29:36,443 INFO: Network [WFFGAN] is created.
2024-03-05 09:29:36,890 INFO: Network: WFFGAN, with parameters: 7,193,987
2024-03-05 09:29:36,890 INFO: WFFGAN(
  (conv_first): Conv2d(3, 64, kernel_size=(3, 3), stride=(1, 1), padding=(1, 1))
  (stage1): Stage1(
    (SMSDB): SMSDB(
      (layers): Sequential(
        (0): MSDB(
          (conv_first): Sequential(
            (0): Conv2d(64, 32, kernel_size=(3, 3), stride=(1, 1), padding=(1, 1))
            (1): LeakyReLU(negative_slope=0.2, inplace=True)
          )
          (conv1): Sequential(
            (0): Conv2d(32, 32, kernel_size=(3, 3), stride=(1, 1), padding=(1, 1))
            (1): LeakyReLU(negative_slope=0.2, inplace=True)
          )
          (conv2): Sequential(
            (0): Conv2d(96, 32, kernel_size=(3, 3), stride=(1, 1), padding=(1, 1))
            (1): LeakyReLU(negative_slope=0.2, inplace=True)
          )
          (conv3): Sequential(
            (0): Conv2d(160, 32, kernel_size=(3, 3), stride=(1, 1), padding=(1, 1))
            (1): LeakyReLU(negative_slope=0.2, inplace=True)
          )
          (conv4): Sequential(
            (0): Conv2d(224, 64, kernel_size=(3, 3), stride=(1, 1), padding=(1, 1))
            (1): LeakyReLU(negative_slope=0.2, inplace=True)
          )
          (conv5): Sequential(
            (0): Conv2d(32, 32, kernel_size=(5, 5), stride=(1, 1), padding=(2, 2))
            (1): LeakyReLU(negative_slope=0.2, inplace=True)
          )
          (conv7): Sequential(
            (0): Conv2d(32, 32, kernel_size=(7, 7), stride=(1, 1), padding=(3, 3))
            (1): LeakyReLU(negative_slope=0.2, inplace=True)
          )
          (conv9): Sequential(
            (0): Conv2d(32, 32, kernel_size=(9, 9), stride=(1, 1), padding=(4, 4))
            (1): LeakyReLU(negative_slope=0.2, inplace=True)
          )
        )
        (1): MSDB(
          (conv_first): Sequential(
            (0): Conv2d(64, 32, kernel_size=(3, 3), stride=(1, 1), padding=(1, 1))
            (1): LeakyReLU(negative_slope=0.2, inplace=True)
          )
          (conv1): Sequential(
            (0): Conv2d(32, 32, kernel_size=(3, 3), stride=(1, 1), padding=(1, 1))
            (1): LeakyReLU(negative_slope=0.2, inplace=True)
          )
          (conv2): Sequential(
            (0): Conv2d(96, 32, kernel_size=(3, 3), stride=(1, 1), padding=(1, 1))
            (1): LeakyReLU(negative_slope=0.2, inplace=True)
          )
          (conv3): Sequential(
            (0): Conv2d(160, 32, kernel_size=(3, 3), stride=(1, 1), padding=(1, 1))
            (1): LeakyReLU(negative_slope=0.2, inplace=True)
          )
          (conv4): Sequential(
            (0): Conv2d(224, 64, kernel_size=(3, 3), stride=(1, 1), padding=(1, 1))
            (1): LeakyReLU(negative_slope=0.2, inplace=True)
          )
          (conv5): Sequential(
            (0): Conv2d(32, 32, kernel_size=(5, 5), stride=(1, 1), padding=(2, 2))
            (1): LeakyReLU(negative_slope=0.2, inplace=True)
          )
          (conv7): Sequential(
            (0): Conv2d(32, 32, kernel_size=(7, 7), stride=(1, 1), padding=(3, 3))
            (1): LeakyReLU(negative_slope=0.2, inplace=True)
          )
          (conv9): Sequential(
            (0): Conv2d(32, 32, kernel_size=(9, 9), stride=(1, 1), padding=(4, 4))
            (1): LeakyReLU(negative_slope=0.2, inplace=True)
          )
        )
        (2): MSDB(
          (conv_first): Sequential(
            (0): Conv2d(64, 32, kernel_size=(3, 3), stride=(1, 1), padding=(1, 1))
            (1): LeakyReLU(negative_slope=0.2, inplace=True)
          )
          (conv1): Sequential(
            (0): Conv2d(32, 32, kernel_size=(3, 3), stride=(1, 1), padding=(1, 1))
            (1): LeakyReLU(negative_slope=0.2, inplace=True)
          )
          (conv2): Sequential(
            (0): Conv2d(96, 32, kernel_size=(3, 3), stride=(1, 1), padding=(1, 1))
            (1): LeakyReLU(negative_slope=0.2, inplace=True)
          )
          (conv3): Sequential(
            (0): Conv2d(160, 32, kernel_size=(3, 3), stride=(1, 1), padding=(1, 1))
            (1): LeakyReLU(negative_slope=0.2, inplace=True)
          )
          (conv4): Sequential(
            (0): Conv2d(224, 64, kernel_size=(3, 3), stride=(1, 1), padding=(1, 1))
            (1): LeakyReLU(negative_slope=0.2, inplace=True)
          )
          (conv5): Sequential(
            (0): Conv2d(32, 32, kernel_size=(5, 5), stride=(1, 1), padding=(2, 2))
            (1): LeakyReLU(negative_slope=0.2, inplace=True)
          )
          (conv7): Sequential(
            (0): Conv2d(32, 32, kernel_size=(7, 7), stride=(1, 1), padding=(3, 3))
            (1): LeakyReLU(negative_slope=0.2, inplace=True)
          )
          (conv9): Sequential(
            (0): Conv2d(32, 32, kernel_size=(9, 9), stride=(1, 1), padding=(4, 4))
            (1): LeakyReLU(negative_slope=0.2, inplace=True)
          )
        )
        (3): MSDB(
          (conv_first): Sequential(
            (0): Conv2d(64, 32, kernel_size=(3, 3), stride=(1, 1), padding=(1, 1))
            (1): LeakyReLU(negative_slope=0.2, inplace=True)
          )
          (conv1): Sequential(
            (0): Conv2d(32, 32, kernel_size=(3, 3), stride=(1, 1), padding=(1, 1))
            (1): LeakyReLU(negative_slope=0.2, inplace=True)
          )
          (conv2): Sequential(
            (0): Conv2d(96, 32, kernel_size=(3, 3), stride=(1, 1), padding=(1, 1))
            (1): LeakyReLU(negative_slope=0.2, inplace=True)
          )
          (conv3): Sequential(
            (0): Conv2d(160, 32, kernel_size=(3, 3), stride=(1, 1), padding=(1, 1))
            (1): LeakyReLU(negative_slope=0.2, inplace=True)
          )
          (conv4): Sequential(
            (0): Conv2d(224, 64, kernel_size=(3, 3), stride=(1, 1), padding=(1, 1))
            (1): LeakyReLU(negative_slope=0.2, inplace=True)
          )
          (conv5): Sequential(
            (0): Conv2d(32, 32, kernel_size=(5, 5), stride=(1, 1), padding=(2, 2))
            (1): LeakyReLU(negative_slope=0.2, inplace=True)
          )
          (conv7): Sequential(
            (0): Conv2d(32, 32, kernel_size=(7, 7), stride=(1, 1), padding=(3, 3))
            (1): LeakyReLU(negative_slope=0.2, inplace=True)
          )
          (conv9): Sequential(
            (0): Conv2d(32, 32, kernel_size=(9, 9), stride=(1, 1), padding=(4, 4))
            (1): LeakyReLU(negative_slope=0.2, inplace=True)
          )
        )
      )
    )
    (upsampling): upsampling(
      (up): Sequential(
        (0): Conv2d(64, 64, kernel_size=(3, 3), stride=(1, 1), padding=(1, 1))
        (1): PixelShuffle(upscale_factor=2)
        (2): Conv2d(16, 64, kernel_size=(3, 3), stride=(1, 1), padding=(1, 1))
        (3): LeakyReLU(negative_slope=0.2, inplace=True)
      )
    )
    (DWT1): DWT1(
      (conv): Sequential(
        (0): Conv2d(64, 64, kernel_size=(3, 3), stride=(1, 1), padding=(1, 1))
        (1): LeakyReLU(negative_slope=0.2, inplace=True)
      )
      (conv1): Sequential(
        (0): Conv2d(256, 64, kernel_size=(3, 3), stride=(1, 1), padding=(1, 1))
        (1): LeakyReLU(negative_slope=0.2, inplace=True)
      )
      (DWT): DWT()
      (SMSDB): SMSDB(
        (layers): Sequential(
          (0): MSDB(
            (conv_first): Sequential(
              (0): Conv2d(64, 32, kernel_size=(3, 3), stride=(1, 1), padding=(1, 1))
              (1): LeakyReLU(negative_slope=0.2, inplace=True)
            )
            (conv1): Sequential(
              (0): Conv2d(32, 32, kernel_size=(3, 3), stride=(1, 1), padding=(1, 1))
              (1): LeakyReLU(negative_slope=0.2, inplace=True)
            )
            (conv2): Sequential(
              (0): Conv2d(96, 32, kernel_size=(3, 3), stride=(1, 1), padding=(1, 1))
              (1): LeakyReLU(negative_slope=0.2, inplace=True)
            )
            (conv3): Sequential(
              (0): Conv2d(160, 32, kernel_size=(3, 3), stride=(1, 1), padding=(1, 1))
              (1): LeakyReLU(negative_slope=0.2, inplace=True)
            )
            (conv4): Sequential(
              (0): Conv2d(224, 64, kernel_size=(3, 3), stride=(1, 1), padding=(1, 1))
              (1): LeakyReLU(negative_slope=0.2, inplace=True)
            )
            (conv5): Sequential(
              (0): Conv2d(32, 32, kernel_size=(5, 5), stride=(1, 1), padding=(2, 2))
              (1): LeakyReLU(negative_slope=0.2, inplace=True)
            )
            (conv7): Sequential(
              (0): Conv2d(32, 32, kernel_size=(7, 7), stride=(1, 1), padding=(3, 3))
              (1): LeakyReLU(negative_slope=0.2, inplace=True)
            )
            (conv9): Sequential(
              (0): Conv2d(32, 32, kernel_size=(9, 9), stride=(1, 1), padding=(4, 4))
              (1): LeakyReLU(negative_slope=0.2, inplace=True)
            )
          )
          (1): MSDB(
            (conv_first): Sequential(
              (0): Conv2d(64, 32, kernel_size=(3, 3), stride=(1, 1), padding=(1, 1))
              (1): LeakyReLU(negative_slope=0.2, inplace=True)
            )
            (conv1): Sequential(
              (0): Conv2d(32, 32, kernel_size=(3, 3), stride=(1, 1), padding=(1, 1))
              (1): LeakyReLU(negative_slope=0.2, inplace=True)
            )
            (conv2): Sequential(
              (0): Conv2d(96, 32, kernel_size=(3, 3), stride=(1, 1), padding=(1, 1))
              (1): LeakyReLU(negative_slope=0.2, inplace=True)
            )
            (conv3): Sequential(
              (0): Conv2d(160, 32, kernel_size=(3, 3), stride=(1, 1), padding=(1, 1))
              (1): LeakyReLU(negative_slope=0.2, inplace=True)
            )
            (conv4): Sequential(
              (0): Conv2d(224, 64, kernel_size=(3, 3), stride=(1, 1), padding=(1, 1))
              (1): LeakyReLU(negative_slope=0.2, inplace=True)
            )
            (conv5): Sequential(
              (0): Conv2d(32, 32, kernel_size=(5, 5), stride=(1, 1), padding=(2, 2))
              (1): LeakyReLU(negative_slope=0.2, inplace=True)
            )
            (conv7): Sequential(
              (0): Conv2d(32, 32, kernel_size=(7, 7), stride=(1, 1), padding=(3, 3))
              (1): LeakyReLU(negative_slope=0.2, inplace=True)
            )
            (conv9): Sequential(
              (0): Conv2d(32, 32, kernel_size=(9, 9), stride=(1, 1), padding=(4, 4))
              (1): LeakyReLU(negative_slope=0.2, inplace=True)
            )
          )
          (2): MSDB(
            (conv_first): Sequential(
              (0): Conv2d(64, 32, kernel_size=(3, 3), stride=(1, 1), padding=(1, 1))
              (1): LeakyReLU(negative_slope=0.2, inplace=True)
            )
            (conv1): Sequential(
              (0): Conv2d(32, 32, kernel_size=(3, 3), stride=(1, 1), padding=(1, 1))
              (1): LeakyReLU(negative_slope=0.2, inplace=True)
            )
            (conv2): Sequential(
              (0): Conv2d(96, 32, kernel_size=(3, 3), stride=(1, 1), padding=(1, 1))
              (1): LeakyReLU(negative_slope=0.2, inplace=True)
            )
            (conv3): Sequential(
              (0): Conv2d(160, 32, kernel_size=(3, 3), stride=(1, 1), padding=(1, 1))
              (1): LeakyReLU(negative_slope=0.2, inplace=True)
            )
            (conv4): Sequential(
              (0): Conv2d(224, 64, kernel_size=(3, 3), stride=(1, 1), padding=(1, 1))
              (1): LeakyReLU(negative_slope=0.2, inplace=True)
            )
            (conv5): Sequential(
              (0): Conv2d(32, 32, kernel_size=(5, 5), stride=(1, 1), padding=(2, 2))
              (1): LeakyReLU(negative_slope=0.2, inplace=True)
            )
            (conv7): Sequential(
              (0): Conv2d(32, 32, kernel_size=(7, 7), stride=(1, 1), padding=(3, 3))
              (1): LeakyReLU(negative_slope=0.2, inplace=True)
            )
            (conv9): Sequential(
              (0): Conv2d(32, 32, kernel_size=(9, 9), stride=(1, 1), padding=(4, 4))
              (1): LeakyReLU(negative_slope=0.2, inplace=True)
            )
          )
          (3): MSDB(
            (conv_first): Sequential(
              (0): Conv2d(64, 32, kernel_size=(3, 3), stride=(1, 1), padding=(1, 1))
              (1): LeakyReLU(negative_slope=0.2, inplace=True)
            )
            (conv1): Sequential(
              (0): Conv2d(32, 32, kernel_size=(3, 3), stride=(1, 1), padding=(1, 1))
              (1): LeakyReLU(negative_slope=0.2, inplace=True)
            )
            (conv2): Sequential(
              (0): Conv2d(96, 32, kernel_size=(3, 3), stride=(1, 1), padding=(1, 1))
              (1): LeakyReLU(negative_slope=0.2, inplace=True)
            )
            (conv3): Sequential(
              (0): Conv2d(160, 32, kernel_size=(3, 3), stride=(1, 1), padding=(1, 1))
              (1): LeakyReLU(negative_slope=0.2, inplace=True)
            )
            (conv4): Sequential(
              (0): Conv2d(224, 64, kernel_size=(3, 3), stride=(1, 1), padding=(1, 1))
              (1): LeakyReLU(negative_slope=0.2, inplace=True)
            )
            (conv5): Sequential(
              (0): Conv2d(32, 32, kernel_size=(5, 5), stride=(1, 1), padding=(2, 2))
              (1): LeakyReLU(negative_slope=0.2, inplace=True)
            )
            (conv7): Sequential(
              (0): Conv2d(32, 32, kernel_size=(7, 7), stride=(1, 1), padding=(3, 3))
              (1): LeakyReLU(negative_slope=0.2, inplace=True)
            )
            (conv9): Sequential(
              (0): Conv2d(32, 32, kernel_size=(9, 9), stride=(1, 1), padding=(4, 4))
              (1): LeakyReLU(negative_slope=0.2, inplace=True)
            )
          )
        )
      )
      (upsampling): upsampling(
        (up): Sequential(
          (0): Conv2d(64, 64, kernel_size=(3, 3), stride=(1, 1), padding=(1, 1))
          (1): PixelShuffle(upscale_factor=2)
          (2): Conv2d(16, 64, kernel_size=(3, 3), stride=(1, 1), padding=(1, 1))
          (3): LeakyReLU(negative_slope=0.2, inplace=True)
        )
      )
    )
    (IWT): IWT()
    (conv1): Sequential(
      (0): Conv2d(64, 64, kernel_size=(3, 3), stride=(1, 1), padding=(1, 1))
      (1): LeakyReLU(negative_slope=0.2, inplace=True)
    )
    (conv2): Sequential(
      (0): Conv2d(64, 256, kernel_size=(3, 3), stride=(1, 1), padding=(1, 1))
      (1): LeakyReLU(negative_slope=0.2, inplace=True)
    )
  )
  (stage2): Stage2(
    (SMSDB): SMSDB(
      (layers): Sequential(
        (0): MSDB(
          (conv_first): Sequential(
            (0): Conv2d(64, 32, kernel_size=(3, 3), stride=(1, 1), padding=(1, 1))
            (1): LeakyReLU(negative_slope=0.2, inplace=True)
          )
          (conv1): Sequential(
            (0): Conv2d(32, 32, kernel_size=(3, 3), stride=(1, 1), padding=(1, 1))
            (1): LeakyReLU(negative_slope=0.2, inplace=True)
          )
          (conv2): Sequential(
            (0): Conv2d(96, 32, kernel_size=(3, 3), stride=(1, 1), padding=(1, 1))
            (1): LeakyReLU(negative_slope=0.2, inplace=True)
          )
          (conv3): Sequential(
            (0): Conv2d(160, 32, kernel_size=(3, 3), stride=(1, 1), padding=(1, 1))
            (1): LeakyReLU(negative_slope=0.2, inplace=True)
          )
          (conv4): Sequential(
            (0): Conv2d(224, 64, kernel_size=(3, 3), stride=(1, 1), padding=(1, 1))
            (1): LeakyReLU(negative_slope=0.2, inplace=True)
          )
          (conv5): Sequential(
            (0): Conv2d(32, 32, kernel_size=(5, 5), stride=(1, 1), padding=(2, 2))
            (1): LeakyReLU(negative_slope=0.2, inplace=True)
          )
          (conv7): Sequential(
            (0): Conv2d(32, 32, kernel_size=(7, 7), stride=(1, 1), padding=(3, 3))
            (1): LeakyReLU(negative_slope=0.2, inplace=True)
          )
          (conv9): Sequential(
            (0): Conv2d(32, 32, kernel_size=(9, 9), stride=(1, 1), padding=(4, 4))
            (1): LeakyReLU(negative_slope=0.2, inplace=True)
          )
        )
        (1): MSDB(
          (conv_first): Sequential(
            (0): Conv2d(64, 32, kernel_size=(3, 3), stride=(1, 1), padding=(1, 1))
            (1): LeakyReLU(negative_slope=0.2, inplace=True)
          )
          (conv1): Sequential(
            (0): Conv2d(32, 32, kernel_size=(3, 3), stride=(1, 1), padding=(1, 1))
            (1): LeakyReLU(negative_slope=0.2, inplace=True)
          )
          (conv2): Sequential(
            (0): Conv2d(96, 32, kernel_size=(3, 3), stride=(1, 1), padding=(1, 1))
            (1): LeakyReLU(negative_slope=0.2, inplace=True)
          )
          (conv3): Sequential(
            (0): Conv2d(160, 32, kernel_size=(3, 3), stride=(1, 1), padding=(1, 1))
            (1): LeakyReLU(negative_slope=0.2, inplace=True)
          )
          (conv4): Sequential(
            (0): Conv2d(224, 64, kernel_size=(3, 3), stride=(1, 1), padding=(1, 1))
            (1): LeakyReLU(negative_slope=0.2, inplace=True)
          )
          (conv5): Sequential(
            (0): Conv2d(32, 32, kernel_size=(5, 5), stride=(1, 1), padding=(2, 2))
            (1): LeakyReLU(negative_slope=0.2, inplace=True)
          )
          (conv7): Sequential(
            (0): Conv2d(32, 32, kernel_size=(7, 7), stride=(1, 1), padding=(3, 3))
            (1): LeakyReLU(negative_slope=0.2, inplace=True)
          )
          (conv9): Sequential(
            (0): Conv2d(32, 32, kernel_size=(9, 9), stride=(1, 1), padding=(4, 4))
            (1): LeakyReLU(negative_slope=0.2, inplace=True)
          )
        )
        (2): MSDB(
          (conv_first): Sequential(
            (0): Conv2d(64, 32, kernel_size=(3, 3), stride=(1, 1), padding=(1, 1))
            (1): LeakyReLU(negative_slope=0.2, inplace=True)
          )
          (conv1): Sequential(
            (0): Conv2d(32, 32, kernel_size=(3, 3), stride=(1, 1), padding=(1, 1))
            (1): LeakyReLU(negative_slope=0.2, inplace=True)
          )
          (conv2): Sequential(
            (0): Conv2d(96, 32, kernel_size=(3, 3), stride=(1, 1), padding=(1, 1))
            (1): LeakyReLU(negative_slope=0.2, inplace=True)
          )
          (conv3): Sequential(
            (0): Conv2d(160, 32, kernel_size=(3, 3), stride=(1, 1), padding=(1, 1))
            (1): LeakyReLU(negative_slope=0.2, inplace=True)
          )
          (conv4): Sequential(
            (0): Conv2d(224, 64, kernel_size=(3, 3), stride=(1, 1), padding=(1, 1))
            (1): LeakyReLU(negative_slope=0.2, inplace=True)
          )
          (conv5): Sequential(
            (0): Conv2d(32, 32, kernel_size=(5, 5), stride=(1, 1), padding=(2, 2))
            (1): LeakyReLU(negative_slope=0.2, inplace=True)
          )
          (conv7): Sequential(
            (0): Conv2d(32, 32, kernel_size=(7, 7), stride=(1, 1), padding=(3, 3))
            (1): LeakyReLU(negative_slope=0.2, inplace=True)
          )
          (conv9): Sequential(
            (0): Conv2d(32, 32, kernel_size=(9, 9), stride=(1, 1), padding=(4, 4))
            (1): LeakyReLU(negative_slope=0.2, inplace=True)
          )
        )
        (3): MSDB(
          (conv_first): Sequential(
            (0): Conv2d(64, 32, kernel_size=(3, 3), stride=(1, 1), padding=(1, 1))
            (1): LeakyReLU(negative_slope=0.2, inplace=True)
          )
          (conv1): Sequential(
            (0): Conv2d(32, 32, kernel_size=(3, 3), stride=(1, 1), padding=(1, 1))
            (1): LeakyReLU(negative_slope=0.2, inplace=True)
          )
          (conv2): Sequential(
            (0): Conv2d(96, 32, kernel_size=(3, 3), stride=(1, 1), padding=(1, 1))
            (1): LeakyReLU(negative_slope=0.2, inplace=True)
          )
          (conv3): Sequential(
            (0): Conv2d(160, 32, kernel_size=(3, 3), stride=(1, 1), padding=(1, 1))
            (1): LeakyReLU(negative_slope=0.2, inplace=True)
          )
          (conv4): Sequential(
            (0): Conv2d(224, 64, kernel_size=(3, 3), stride=(1, 1), padding=(1, 1))
            (1): LeakyReLU(negative_slope=0.2, inplace=True)
          )
          (conv5): Sequential(
            (0): Conv2d(32, 32, kernel_size=(5, 5), stride=(1, 1), padding=(2, 2))
            (1): LeakyReLU(negative_slope=0.2, inplace=True)
          )
          (conv7): Sequential(
            (0): Conv2d(32, 32, kernel_size=(7, 7), stride=(1, 1), padding=(3, 3))
            (1): LeakyReLU(negative_slope=0.2, inplace=True)
          )
          (conv9): Sequential(
            (0): Conv2d(32, 32, kernel_size=(9, 9), stride=(1, 1), padding=(4, 4))
            (1): LeakyReLU(negative_slope=0.2, inplace=True)
          )
        )
      )
    )
    (upsampling): upsampling(
      (up): Sequential(
        (0): Conv2d(64, 64, kernel_size=(3, 3), stride=(1, 1), padding=(1, 1))
        (1): PixelShuffle(upscale_factor=2)
        (2): Conv2d(16, 64, kernel_size=(3, 3), stride=(1, 1), padding=(1, 1))
        (3): LeakyReLU(negative_slope=0.2, inplace=True)
      )
    )
    (DWT2): DWT2(
      (conv): Sequential(
        (0): Conv2d(64, 64, kernel_size=(3, 3), stride=(1, 1), padding=(1, 1))
        (1): LeakyReLU(negative_slope=0.2, inplace=True)
      )
      (conv1): Sequential(
        (0): Conv2d(256, 64, kernel_size=(3, 3), stride=(1, 1), padding=(1, 1))
        (1): LeakyReLU(negative_slope=0.2, inplace=True)
      )
      (DWT): DWT()
      (SMSDB): SMSDB(
        (layers): Sequential(
          (0): MSDB(
            (conv_first): Sequential(
              (0): Conv2d(64, 32, kernel_size=(3, 3), stride=(1, 1), padding=(1, 1))
              (1): LeakyReLU(negative_slope=0.2, inplace=True)
            )
            (conv1): Sequential(
              (0): Conv2d(32, 32, kernel_size=(3, 3), stride=(1, 1), padding=(1, 1))
              (1): LeakyReLU(negative_slope=0.2, inplace=True)
            )
            (conv2): Sequential(
              (0): Conv2d(96, 32, kernel_size=(3, 3), stride=(1, 1), padding=(1, 1))
              (1): LeakyReLU(negative_slope=0.2, inplace=True)
            )
            (conv3): Sequential(
              (0): Conv2d(160, 32, kernel_size=(3, 3), stride=(1, 1), padding=(1, 1))
              (1): LeakyReLU(negative_slope=0.2, inplace=True)
            )
            (conv4): Sequential(
              (0): Conv2d(224, 64, kernel_size=(3, 3), stride=(1, 1), padding=(1, 1))
              (1): LeakyReLU(negative_slope=0.2, inplace=True)
            )
            (conv5): Sequential(
              (0): Conv2d(32, 32, kernel_size=(5, 5), stride=(1, 1), padding=(2, 2))
              (1): LeakyReLU(negative_slope=0.2, inplace=True)
            )
            (conv7): Sequential(
              (0): Conv2d(32, 32, kernel_size=(7, 7), stride=(1, 1), padding=(3, 3))
              (1): LeakyReLU(negative_slope=0.2, inplace=True)
            )
            (conv9): Sequential(
              (0): Conv2d(32, 32, kernel_size=(9, 9), stride=(1, 1), padding=(4, 4))
              (1): LeakyReLU(negative_slope=0.2, inplace=True)
            )
          )
          (1): MSDB(
            (conv_first): Sequential(
              (0): Conv2d(64, 32, kernel_size=(3, 3), stride=(1, 1), padding=(1, 1))
              (1): LeakyReLU(negative_slope=0.2, inplace=True)
            )
            (conv1): Sequential(
              (0): Conv2d(32, 32, kernel_size=(3, 3), stride=(1, 1), padding=(1, 1))
              (1): LeakyReLU(negative_slope=0.2, inplace=True)
            )
            (conv2): Sequential(
              (0): Conv2d(96, 32, kernel_size=(3, 3), stride=(1, 1), padding=(1, 1))
              (1): LeakyReLU(negative_slope=0.2, inplace=True)
            )
            (conv3): Sequential(
              (0): Conv2d(160, 32, kernel_size=(3, 3), stride=(1, 1), padding=(1, 1))
              (1): LeakyReLU(negative_slope=0.2, inplace=True)
            )
            (conv4): Sequential(
              (0): Conv2d(224, 64, kernel_size=(3, 3), stride=(1, 1), padding=(1, 1))
              (1): LeakyReLU(negative_slope=0.2, inplace=True)
            )
            (conv5): Sequential(
              (0): Conv2d(32, 32, kernel_size=(5, 5), stride=(1, 1), padding=(2, 2))
              (1): LeakyReLU(negative_slope=0.2, inplace=True)
            )
            (conv7): Sequential(
              (0): Conv2d(32, 32, kernel_size=(7, 7), stride=(1, 1), padding=(3, 3))
              (1): LeakyReLU(negative_slope=0.2, inplace=True)
            )
            (conv9): Sequential(
              (0): Conv2d(32, 32, kernel_size=(9, 9), stride=(1, 1), padding=(4, 4))
              (1): LeakyReLU(negative_slope=0.2, inplace=True)
            )
          )
          (2): MSDB(
            (conv_first): Sequential(
              (0): Conv2d(64, 32, kernel_size=(3, 3), stride=(1, 1), padding=(1, 1))
              (1): LeakyReLU(negative_slope=0.2, inplace=True)
            )
            (conv1): Sequential(
              (0): Conv2d(32, 32, kernel_size=(3, 3), stride=(1, 1), padding=(1, 1))
              (1): LeakyReLU(negative_slope=0.2, inplace=True)
            )
            (conv2): Sequential(
              (0): Conv2d(96, 32, kernel_size=(3, 3), stride=(1, 1), padding=(1, 1))
              (1): LeakyReLU(negative_slope=0.2, inplace=True)
            )
            (conv3): Sequential(
              (0): Conv2d(160, 32, kernel_size=(3, 3), stride=(1, 1), padding=(1, 1))
              (1): LeakyReLU(negative_slope=0.2, inplace=True)
            )
            (conv4): Sequential(
              (0): Conv2d(224, 64, kernel_size=(3, 3), stride=(1, 1), padding=(1, 1))
              (1): LeakyReLU(negative_slope=0.2, inplace=True)
            )
            (conv5): Sequential(
              (0): Conv2d(32, 32, kernel_size=(5, 5), stride=(1, 1), padding=(2, 2))
              (1): LeakyReLU(negative_slope=0.2, inplace=True)
            )
            (conv7): Sequential(
              (0): Conv2d(32, 32, kernel_size=(7, 7), stride=(1, 1), padding=(3, 3))
              (1): LeakyReLU(negative_slope=0.2, inplace=True)
            )
            (conv9): Sequential(
              (0): Conv2d(32, 32, kernel_size=(9, 9), stride=(1, 1), padding=(4, 4))
              (1): LeakyReLU(negative_slope=0.2, inplace=True)
            )
          )
          (3): MSDB(
            (conv_first): Sequential(
              (0): Conv2d(64, 32, kernel_size=(3, 3), stride=(1, 1), padding=(1, 1))
              (1): LeakyReLU(negative_slope=0.2, inplace=True)
            )
            (conv1): Sequential(
              (0): Conv2d(32, 32, kernel_size=(3, 3), stride=(1, 1), padding=(1, 1))
              (1): LeakyReLU(negative_slope=0.2, inplace=True)
            )
            (conv2): Sequential(
              (0): Conv2d(96, 32, kernel_size=(3, 3), stride=(1, 1), padding=(1, 1))
              (1): LeakyReLU(negative_slope=0.2, inplace=True)
            )
            (conv3): Sequential(
              (0): Conv2d(160, 32, kernel_size=(3, 3), stride=(1, 1), padding=(1, 1))
              (1): LeakyReLU(negative_slope=0.2, inplace=True)
            )
            (conv4): Sequential(
              (0): Conv2d(224, 64, kernel_size=(3, 3), stride=(1, 1), padding=(1, 1))
              (1): LeakyReLU(negative_slope=0.2, inplace=True)
            )
            (conv5): Sequential(
              (0): Conv2d(32, 32, kernel_size=(5, 5), stride=(1, 1), padding=(2, 2))
              (1): LeakyReLU(negative_slope=0.2, inplace=True)
            )
            (conv7): Sequential(
              (0): Conv2d(32, 32, kernel_size=(7, 7), stride=(1, 1), padding=(3, 3))
              (1): LeakyReLU(negative_slope=0.2, inplace=True)
            )
            (conv9): Sequential(
              (0): Conv2d(32, 32, kernel_size=(9, 9), stride=(1, 1), padding=(4, 4))
              (1): LeakyReLU(negative_slope=0.2, inplace=True)
            )
          )
        )
      )
    )
    (IWT): IWT()
    (conv1): Sequential(
      (0): Conv2d(64, 64, kernel_size=(3, 3), stride=(1, 1), padding=(1, 1))
      (1): LeakyReLU(negative_slope=0.2, inplace=True)
    )
    (conv2): Sequential(
      (0): Conv2d(64, 256, kernel_size=(3, 3), stride=(1, 1), padding=(1, 1))
      (1): LeakyReLU(negative_slope=0.2, inplace=True)
    )
  )
  (upsampling): upsampling(
    (up): Sequential(
      (0): Conv2d(64, 64, kernel_size=(3, 3), stride=(1, 1), padding=(1, 1))
      (1): PixelShuffle(upscale_factor=2)
      (2): Conv2d(16, 64, kernel_size=(3, 3), stride=(1, 1), padding=(1, 1))
      (3): LeakyReLU(negative_slope=0.2, inplace=True)
    )
  )
  (conv): Sequential(
    (0): Conv2d(64, 64, kernel_size=(3, 3), stride=(1, 1), padding=(1, 1))
    (1): LeakyReLU(negative_slope=0.2, inplace=True)
  )
  (conv_last): Sequential(
    (0): Conv2d(64, 3, kernel_size=(3, 3), stride=(1, 1), padding=(1, 1))
  )
)
2024-03-05 09:29:36,915 INFO: Loading WFFGAN model from experiments/WFFGAN_PSNR/models/net_g_500000.pth, with param key: [params].
2024-03-05 09:29:36,933 INFO: Use Exponential Moving Average with decay: 0.999
2024-03-05 09:29:36,998 INFO: Network [WFFGAN] is created.
2024-03-05 09:29:37,022 INFO: Loading WFFGAN model from experiments/WFFGAN_PSNR/models/net_g_500000.pth, with param key: [params_ema].
2024-03-05 09:29:37,100 INFO: Network [VGGStyleDiscriminator] is created.
2024-03-05 09:29:37,106 INFO: Network: VGGStyleDiscriminator, with parameters: 14,499,401
2024-03-05 09:29:37,106 INFO: VGGStyleDiscriminator(
  (conv0_0): Conv2d(3, 64, kernel_size=(3, 3), stride=(1, 1), padding=(1, 1))
  (conv0_1): Conv2d(64, 64, kernel_size=(4, 4), stride=(2, 2), padding=(1, 1), bias=False)
  (bn0_1): BatchNorm2d(64, eps=1e-05, momentum=0.1, affine=True, track_running_stats=True)
  (conv1_0): Conv2d(64, 128, kernel_size=(3, 3), stride=(1, 1), padding=(1, 1), bias=False)
  (bn1_0): BatchNorm2d(128, eps=1e-05, momentum=0.1, affine=True, track_running_stats=True)
  (conv1_1): Conv2d(128, 128, kernel_size=(4, 4), stride=(2, 2), padding=(1, 1), bias=False)
  (bn1_1): BatchNorm2d(128, eps=1e-05, momentum=0.1, affine=True, track_running_stats=True)
  (conv2_0): Conv2d(128, 256, kernel_size=(3, 3), stride=(1, 1), padding=(1, 1), bias=False)
  (bn2_0): BatchNorm2d(256, eps=1e-05, momentum=0.1, affine=True, track_running_stats=True)
  (conv2_1): Conv2d(256, 256, kernel_size=(4, 4), stride=(2, 2), padding=(1, 1), bias=False)
  (bn2_1): BatchNorm2d(256, eps=1e-05, momentum=0.1, affine=True, track_running_stats=True)
  (conv3_0): Conv2d(256, 512, kernel_size=(3, 3), stride=(1, 1), padding=(1, 1), bias=False)
  (bn3_0): BatchNorm2d(512, eps=1e-05, momentum=0.1, affine=True, track_running_stats=True)
  (conv3_1): Conv2d(512, 512, kernel_size=(4, 4), stride=(2, 2), padding=(1, 1), bias=False)
  (bn3_1): BatchNorm2d(512, eps=1e-05, momentum=0.1, affine=True, track_running_stats=True)
  (conv4_0): Conv2d(512, 512, kernel_size=(3, 3), stride=(1, 1), padding=(1, 1), bias=False)
  (bn4_0): BatchNorm2d(512, eps=1e-05, momentum=0.1, affine=True, track_running_stats=True)
  (conv4_1): Conv2d(512, 512, kernel_size=(4, 4), stride=(2, 2), padding=(1, 1), bias=False)
  (bn4_1): BatchNorm2d(512, eps=1e-05, momentum=0.1, affine=True, track_running_stats=True)
  (linear1): Linear(in_features=8192, out_features=100, bias=True)
  (linear2): Linear(in_features=100, out_features=1, bias=True)
  (lrelu): LeakyReLU(negative_slope=0.2, inplace=True)
)
2024-03-05 09:29:37,107 INFO: Loss [L1Loss] is created.
2024-03-05 09:29:37,224 INFO: Loss [DenseNet121Loss] is created.
2024-03-05 09:29:37,228 INFO: Loss [GANLoss] is created.
2024-03-05 09:29:37,229 INFO: Model [ESRGANModel] is created.
2024-03-05 09:29:37,461 INFO: Start training from epoch: 0, iter: 0
…
