…
	Batch size per gpu: 16
	World size (gpu number): 1
	Require iter number per epoch: 2037
	Total epochs: 246; iters: 500000.
2024-03-02 18:28:18,652 INFO: Dataset [PairedImageDataset] - set5 is built.
2024-03-02 18:28:18,652 INFO: Number of val images/folders in set5: 5
2024-03-02 18:28:18,652 INFO: Dataset [PairedImageDataset] - set14 is built.
2024-03-02 18:28:18,652 INFO: Number of val images/folders in set14: 14
2024-03-02 18:28:18,713 INFO: Network [WFFGAN] is created.
2024-03-02 18:28:19,173 INFO: Network: WFFGAN, with parameters: 7,193,987
2024-03-02 18:28:19,173 INFO: WFFGAN(
  (conv_first): Conv2d(3, 64, kernel_size=(3, 3), stride=(1, 1), padding=(1, 1))
  (stage1): Stage1(
    (SMSDB): SMSDB(
      (layers): Sequential(
        (0): MSDB(
          (conv_first): Sequential(
            (0): Conv2d(64, 32, kernel_size=(3, 3), stride=(1, 1), padding=(1, 1))
            (1): LeakyReLU(negative_slope=0.2, inplace=True)
          )
          (conv1): Sequential(
            (0): Conv2d(32, 32, kernel_size=(3, 3), stride=(1, 1), padding=(1, 1))
            (1): LeakyReLU(negative_slope=0.2, inplace=True)
          )
          (conv2): Sequential(
            (0): Conv2d(96, 32, kernel_size=(3, 3), stride=(1, 1), padding=(1, 1))
            (1): LeakyReLU(negative_slope=0.2, inplace=True)
          )
          (conv3): Sequential(
            (0): Conv2d(160, 32, kernel_size=(3, 3), stride=(1, 1), padding=(1, 1))
            (1): LeakyReLU(negative_slope=0.2, inplace=True)
          )
          (conv4): Sequential(
            (0): Conv2d(224, 64, kernel_size=(3, 3), stride=(1, 1), padding=(1, 1))
            (1): LeakyReLU(negative_slope=0.2, inplace=True)
          )
          (conv5): Sequential(
            (0): Conv2d(32, 32, kernel_size=(5, 5), stride=(1, 1), padding=(2, 2))
            (1): LeakyReLU(negative_slope=0.2, inplace=True)
          )
          (conv7): Sequential(
            (0): Conv2d(32, 32, kernel_size=(7, 7), stride=(1, 1), padding=(3, 3))
            (1): LeakyReLU(negative_slope=0.2, inplace=True)
          )
          (conv9): Sequential(
            (0): Conv2d(32, 32, kernel_size=(9, 9), stride=(1, 1), padding=(4, 4))
            (1): LeakyReLU(negative_slope=0.2, inplace=True)
          )
        )
        (1): MSDB(
          (conv_first): Sequential(
            (0): Conv2d(64, 32, kernel_size=(3, 3), stride=(1, 1), padding=(1, 1))
            (1): LeakyReLU(negative_slope=0.2, inplace=True)
          )
          (conv1): Sequential(
            (0): Conv2d(32, 32, kernel_size=(3, 3), stride=(1, 1), padding=(1, 1))
            (1): LeakyReLU(negative_slope=0.2, inplace=True)
          )
          (conv2): Sequential(
            (0): Conv2d(96, 32, kernel_size=(3, 3), stride=(1, 1), padding=(1, 1))
            (1): LeakyReLU(negative_slope=0.2, inplace=True)
          )
          (conv3): Sequential(
            (0): Conv2d(160, 32, kernel_size=(3, 3), stride=(1, 1), padding=(1, 1))
            (1): LeakyReLU(negative_slope=0.2, inplace=True)
          )
          (conv4): Sequential(
            (0): Conv2d(224, 64, kernel_size=(3, 3), stride=(1, 1), padding=(1, 1))
            (1): LeakyReLU(negative_slope=0.2, inplace=True)
          )
          (conv5): Sequential(
            (0): Conv2d(32, 32, kernel_size=(5, 5), stride=(1, 1), padding=(2, 2))
            (1): LeakyReLU(negative_slope=0.2, inplace=True)
          )
          (conv7): Sequential(
            (0): Conv2d(32, 32, kernel_size=(7, 7), stride=(1, 1), padding=(3, 3))
            (1): LeakyReLU(negative_slope=0.2, inplace=True)
          )
          (conv9): Sequential(
            (0): Conv2d(32, 32, kernel_size=(9, 9), stride=(1, 1), padding=(4, 4))
            (1): LeakyReLU(negative_slope=0.2, inplace=True)
          )
        )
        (2): MSDB(
          (conv_first): Sequential(
            (0): Conv2d(64, 32, kernel_size=(3, 3), stride=(1, 1), padding=(1, 1))
            (1): LeakyReLU(negative_slope=0.2, inplace=True)
          )
          (conv1): Sequential(
            (0): Conv2d(32, 32, kernel_size=(3, 3), stride=(1, 1), padding=(1, 1))
            (1): LeakyReLU(negative_slope=0.2, inplace=True)
          )
          (conv2): Sequential(
            (0): Conv2d(96, 32, kernel_size=(3, 3), stride=(1, 1), padding=(1, 1))
            (1): LeakyReLU(negative_slope=0.2, inplace=True)
          )
          (conv3): Sequential(
            (0): Conv2d(160, 32, kernel_size=(3, 3), stride=(1, 1), padding=(1, 1))
            (1): LeakyReLU(negative_slope=0.2, inplace=True)
          )
          (conv4): Sequential(
            (0): Conv2d(224, 64, kernel_size=(3, 3), stride=(1, 1), padding=(1, 1))
            (1): LeakyReLU(negative_slope=0.2, inplace=True)
          )
          (conv5): Sequential(
            (0): Conv2d(32, 32, kernel_size=(5, 5), stride=(1, 1), padding=(2, 2))
            (1): LeakyReLU(negative_slope=0.2, inplace=True)
          )
          (conv7): Sequential(
            (0): Conv2d(32, 32, kernel_size=(7, 7), stride=(1, 1), padding=(3, 3))
            (1): LeakyReLU(negative_slope=0.2, inplace=True)
          )
          (conv9): Sequential(
            (0): Conv2d(32, 32, kernel_size=(9, 9), stride=(1, 1), padding=(4, 4))
            (1): LeakyReLU(negative_slope=0.2, inplace=True)
          )
        )
        (3): MSDB(
          (conv_first): Sequential(
            (0): Conv2d(64, 32, kernel_size=(3, 3), stride=(1, 1), padding=(1, 1))
            (1): LeakyReLU(negative_slope=0.2, inplace=True)
          )
          (conv1): Sequential(
            (0): Conv2d(32, 32, kernel_size=(3, 3), stride=(1, 1), padding=(1, 1))
            (1): LeakyReLU(negative_slope=0.2, inplace=True)
          )
          (conv2): Sequential(
            (0): Conv2d(96, 32, kernel_size=(3, 3), stride=(1, 1), padding=(1, 1))
            (1): LeakyReLU(negative_slope=0.2, inplace=True)
          )
          (conv3): Sequential(
            (0): Conv2d(160, 32, kernel_size=(3, 3), stride=(1, 1), padding=(1, 1))
            (1): LeakyReLU(negative_slope=0.2, inplace=True)
          )
          (conv4): Sequential(
            (0): Conv2d(224, 64, kernel_size=(3, 3), stride=(1, 1), padding=(1, 1))
            (1): LeakyReLU(negative_slope=0.2, inplace=True)
          )
          (conv5): Sequential(
            (0): Conv2d(32, 32, kernel_size=(5, 5), stride=(1, 1), padding=(2, 2))
            (1): LeakyReLU(negative_slope=0.2, inplace=True)
          )
          (conv7): Sequential(
            (0): Conv2d(32, 32, kernel_size=(7, 7), stride=(1, 1), padding=(3, 3))
            (1): LeakyReLU(negative_slope=0.2, inplace=True)
          )
          (conv9): Sequential(
            (0): Conv2d(32, 32, kernel_size=(9, 9), stride=(1, 1), padding=(4, 4))
            (1): LeakyReLU(negative_slope=0.2, inplace=True)
          )
        )
      )
    )
    (upsampling): upsampling(
      (up): Sequential(
        (0): Conv2d(64, 64, kernel_size=(3, 3), stride=(1, 1), padding=(1, 1))
        (1): PixelShuffle(upscale_factor=2)
        (2): Conv2d(16, 64, kernel_size=(3, 3), stride=(1, 1), padding=(1, 1))
        (3): LeakyReLU(negative_slope=0.2, inplace=True)
      )
    )
    (DWT1): DWT1(
      (conv): Sequential(
        (0): Conv2d(64, 64, kernel_size=(3, 3), stride=(1, 1), padding=(1, 1))
        (1): LeakyReLU(negative_slope=0.2, inplace=True)
      )
      (conv1): Sequential(
        (0): Conv2d(256, 64, kernel_size=(3, 3), stride=(1, 1), padding=(1, 1))
        (1): LeakyReLU(negative_slope=0.2, inplace=True)
      )
      (DWT): DWT()
      (SMSDB): SMSDB(
        (layers): Sequential(
          (0): MSDB(
            (conv_first): Sequential(
              (0): Conv2d(64, 32, kernel_size=(3, 3), stride=(1, 1), padding=(1, 1))
              (1): LeakyReLU(negative_slope=0.2, inplace=True)
            )
            (conv1): Sequential(
              (0): Conv2d(32, 32, kernel_size=(3, 3), stride=(1, 1), padding=(1, 1))
              (1): LeakyReLU(negative_slope=0.2, inplace=True)
            )
            (conv2): Sequential(
              (0): Conv2d(96, 32, kernel_size=(3, 3), stride=(1, 1), padding=(1, 1))
              (1): LeakyReLU(negative_slope=0.2, inplace=True)
            )
            (conv3): Sequential(
              (0): Conv2d(160, 32, kernel_size=(3, 3), stride=(1, 1), padding=(1, 1))
              (1): LeakyReLU(negative_slope=0.2, inplace=True)
            )
            (conv4): Sequential(
              (0): Conv2d(224, 64, kernel_size=(3, 3), stride=(1, 1), padding=(1, 1))
              (1): LeakyReLU(negative_slope=0.2, inplace=True)
            )
            (conv5): Sequential(
              (0): Conv2d(32, 32, kernel_size=(5, 5), stride=(1, 1), padding=(2, 2))
              (1): LeakyReLU(negative_slope=0.2, inplace=True)
            )
            (conv7): Sequential(
              (0): Conv2d(32, 32, kernel_size=(7, 7), stride=(1, 1), padding=(3, 3))
              (1): LeakyReLU(negative_slope=0.2, inplace=True)
            )
            (conv9): Sequential(
              (0): Conv2d(32, 32, kernel_size=(9, 9), stride=(1, 1), padding=(4, 4))
              (1): LeakyReLU(negative_slope=0.2, inplace=True)
            )
          )
          (1): MSDB(
            (conv_first): Sequential(
              (0): Conv2d(64, 32, kernel_size=(3, 3), stride=(1, 1), padding=(1, 1))
              (1): LeakyReLU(negative_slope=0.2, inplace=True)
            )
            (conv1): Sequential(
              (0): Conv2d(32, 32, kernel_size=(3, 3), stride=(1, 1), padding=(1, 1))
              (1): LeakyReLU(negative_slope=0.2, inplace=True)
            )
            (conv2): Sequential(
              (0): Conv2d(96, 32, kernel_size=(3, 3), stride=(1, 1), padding=(1, 1))
              (1): LeakyReLU(negative_slope=0.2, inplace=True)
            )
            (conv3): Sequential(
              (0): Conv2d(160, 32, kernel_size=(3, 3), stride=(1, 1), padding=(1, 1))
              (1): LeakyReLU(negative_slope=0.2, inplace=True)
            )
            (conv4): Sequential(
              (0): Conv2d(224, 64, kernel_size=(3, 3), stride=(1, 1), padding=(1, 1))
              (1): LeakyReLU(negative_slope=0.2, inplace=True)
            )
            (conv5): Sequential(
              (0): Conv2d(32, 32, kernel_size=(5, 5), stride=(1, 1), padding=(2, 2))
              (1): LeakyReLU(negative_slope=0.2, inplace=True)
            )
            (conv7): Sequential(
              (0): Conv2d(32, 32, kernel_size=(7, 7), stride=(1, 1), padding=(3, 3))
              (1): LeakyReLU(negative_slope=0.2, inplace=True)
            )
            (conv9): Sequential(
              (0): Conv2d(32, 32, kernel_size=(9, 9), stride=(1, 1), padding=(4, 4))
              (1): LeakyReLU(negative_slope=0.2, inplace=True)
            )
          )
          (2): MSDB(
            (conv_first): Sequential(
              (0): Conv2d(64, 32, kernel_size=(3, 3), stride=(1, 1), padding=(1, 1))
              (1): LeakyReLU(negative_slope=0.2, inplace=True)
            )
            (conv1): Sequential(
              (0): Conv2d(32, 32, kernel_size=(3, 3), stride=(1, 1), padding=(1, 1))
              (1): LeakyReLU(negative_slope=0.2, inplace=True)
            )
            (conv2): Sequential(
              (0): Conv2d(96, 32, kernel_size=(3, 3), stride=(1, 1), padding=(1, 1))
              (1): LeakyReLU(negative_slope=0.2, inplace=True)
            )
            (conv3): Sequential(
              (0): Conv2d(160, 32, kernel_size=(3, 3), stride=(1, 1), padding=(1, 1))
              (1): LeakyReLU(negative_slope=0.2, inplace=True)
            )
            (conv4): Sequential(
              (0): Conv2d(224, 64, kernel_size=(3, 3), stride=(1, 1), padding=(1, 1))
              (1): LeakyReLU(negative_slope=0.2, inplace=True)
            )
            (conv5): Sequential(
              (0): Conv2d(32, 32, kernel_size=(5, 5), stride=(1, 1), padding=(2, 2))
              (1): LeakyReLU(negative_slope=0.2, inplace=True)
            )
            (conv7): Sequential(
              (0): Conv2d(32, 32, kernel_size=(7, 7), stride=(1, 1), padding=(3, 3))
              (1): LeakyReLU(negative_slope=0.2, inplace=True)
            )
            (conv9): Sequential(
              (0): Conv2d(32, 32, kernel_size=(9, 9), stride=(1, 1), padding=(4, 4))
              (1): LeakyReLU(negative_slope=0.2, inplace=True)
            )
          )
          (3): MSDB(
            (conv_first): Sequential(
              (0): Conv2d(64, 32, kernel_size=(3, 3), stride=(1, 1), padding=(1, 1))
              (1): LeakyReLU(negative_slope=0.2, inplace=True)
            )
            (conv1): Sequential(
              (0): Conv2d(32, 32, kernel_size=(3, 3), stride=(1, 1), padding=(1, 1))
              (1): LeakyReLU(negative_slope=0.2, inplace=True)
            )
            (conv2): Sequential(
              (0): Conv2d(96, 32, kernel_size=(3, 3), stride=(1, 1), padding=(1, 1))
              (1): LeakyReLU(negative_slope=0.2, inplace=True)
            )
            (conv3): Sequential(
              (0): Conv2d(160, 32, kernel_size=(3, 3), stride=(1, 1), padding=(1, 1))
              (1): LeakyReLU(negative_slope=0.2, inplace=True)
            )
            (conv4): Sequential(
              (0): Conv2d(224, 64, kernel_size=(3, 3), stride=(1, 1), padding=(1, 1))
              (1): LeakyReLU(negative_slope=0.2, inplace=True)
            )
            (conv5): Sequential(
              (0): Conv2d(32, 32, kernel_size=(5, 5), stride=(1, 1), padding=(2, 2))
              (1): LeakyReLU(negative_slope=0.2, inplace=True)
            )
            (conv7): Sequential(
              (0): Conv2d(32, 32, kernel_size=(7, 7), stride=(1, 1), padding=(3, 3))
              (1): LeakyReLU(negative_slope=0.2, inplace=True)
            )
            (conv9): Sequential(
              (0): Conv2d(32, 32, kernel_size=(9, 9), stride=(1, 1), padding=(4, 4))
              (1): LeakyReLU(negative_slope=0.2, inplace=True)
            )
          )
        )
      )
      (upsampling): upsampling(
        (up): Sequential(
          (0): Conv2d(64, 64, kernel_size=(3, 3), stride=(1, 1), padding=(1, 1))
          (1): PixelShuffle(upscale_factor=2)
          (2): Conv2d(16, 64, kernel_size=(3, 3), stride=(1, 1), padding=(1, 1))
          (3): LeakyReLU(negative_slope=0.2, inplace=True)
        )
      )
    )
    (IWT): IWT()
    (conv1): Sequential(
      (0): Conv2d(64, 64, kernel_size=(3, 3), stride=(1, 1), padding=(1, 1))
      (1): LeakyReLU(negative_slope=0.2, inplace=True)
    )
    (conv2): Sequential(
      (0): Conv2d(64, 256, kernel_size=(3, 3), stride=(1, 1), padding=(1, 1))
      (1): LeakyReLU(negative_slope=0.2, inplace=True)
    )
  )
  (stage2): Stage2(
    (SMSDB): SMSDB(
      (layers): Sequential(
        (0): MSDB(
          (conv_first): Sequential(
            (0): Conv2d(64, 32, kernel_size=(3, 3), stride=(1, 1), padding=(1, 1))
            (1): LeakyReLU(negative_slope=0.2, inplace=True)
          )
          (conv1): Sequential(
            (0): Conv2d(32, 32, kernel_size=(3, 3), stride=(1, 1), padding=(1, 1))
            (1): LeakyReLU(negative_slope=0.2, inplace=True)
          )
          (conv2): Sequential(
            (0): Conv2d(96, 32, kernel_size=(3, 3), stride=(1, 1), padding=(1, 1))
            (1): LeakyReLU(negative_slope=0.2, inplace=True)
          )
          (conv3): Sequential(
            (0): Conv2d(160, 32, kernel_size=(3, 3), stride=(1, 1), padding=(1, 1))
            (1): LeakyReLU(negative_slope=0.2, inplace=True)
          )
          (conv4): Sequential(
            (0): Conv2d(224, 64, kernel_size=(3, 3), stride=(1, 1), padding=(1, 1))
            (1): LeakyReLU(negative_slope=0.2, inplace=True)
          )
          (conv5): Sequential(
            (0): Conv2d(32, 32, kernel_size=(5, 5), stride=(1, 1), padding=(2, 2))
            (1): LeakyReLU(negative_slope=0.2, inplace=True)
          )
          (conv7): Sequential(
            (0): Conv2d(32, 32, kernel_size=(7, 7), stride=(1, 1), padding=(3, 3))
            (1): LeakyReLU(negative_slope=0.2, inplace=True)
          )
          (conv9): Sequential(
            (0): Conv2d(32, 32, kernel_size=(9, 9), stride=(1, 1), padding=(4, 4))
            (1): LeakyReLU(negative_slope=0.2, inplace=True)
          )
        )
        (1): MSDB(
          (conv_first): Sequential(
            (0): Conv2d(64, 32, kernel_size=(3, 3), stride=(1, 1), padding=(1, 1))
            (1): LeakyReLU(negative_slope=0.2, inplace=True)
          )
          (conv1): Sequential(
            (0): Conv2d(32, 32, kernel_size=(3, 3), stride=(1, 1), padding=(1, 1))
            (1): LeakyReLU(negative_slope=0.2, inplace=True)
          )
          (conv2): Sequential(
            (0): Conv2d(96, 32, kernel_size=(3, 3), stride=(1, 1), padding=(1, 1))
            (1): LeakyReLU(negative_slope=0.2, inplace=True)
          )
          (conv3): Sequential(
            (0): Conv2d(160, 32, kernel_size=(3, 3), stride=(1, 1), padding=(1, 1))
            (1): LeakyReLU(negative_slope=0.2, inplace=True)
          )
          (conv4): Sequential(
            (0): Conv2d(224, 64, kernel_size=(3, 3), stride=(1, 1), padding=(1, 1))
            (1): LeakyReLU(negative_slope=0.2, inplace=True)
          )
          (conv5): Sequential(
            (0): Conv2d(32, 32, kernel_size=(5, 5), stride=(1, 1), padding=(2, 2))
            (1): LeakyReLU(negative_slope=0.2, inplace=True)
          )
          (conv7): Sequential(
            (0): Conv2d(32, 32, kernel_size=(7, 7), stride=(1, 1), padding=(3, 3))
            (1): LeakyReLU(negative_slope=0.2, inplace=True)
          )
          (conv9): Sequential(
            (0): Conv2d(32, 32, kernel_size=(9, 9), stride=(1, 1), padding=(4, 4))
            (1): LeakyReLU(negative_slope=0.2, inplace=True)
          )
        )
        (2): MSDB(
          (conv_first): Sequential(
            (0): Conv2d(64, 32, kernel_size=(3, 3), stride=(1, 1), padding=(1, 1))
            (1): LeakyReLU(negative_slope=0.2, inplace=True)
          )
          (conv1): Sequential(
            (0): Conv2d(32, 32, kernel_size=(3, 3), stride=(1, 1), padding=(1, 1))
            (1): LeakyReLU(negative_slope=0.2, inplace=True)
          )
          (conv2): Sequential(
            (0): Conv2d(96, 32, kernel_size=(3, 3), stride=(1, 1), padding=(1, 1))
            (1): LeakyReLU(negative_slope=0.2, inplace=True)
          )
          (conv3): Sequential(
            (0): Conv2d(160, 32, kernel_size=(3, 3), stride=(1, 1), padding=(1, 1))
            (1): LeakyReLU(negative_slope=0.2, inplace=True)
          )
          (conv4): Sequential(
            (0): Conv2d(224, 64, kernel_size=(3, 3), stride=(1, 1), padding=(1, 1))
            (1): LeakyReLU(negative_slope=0.2, inplace=True)
          )
          (conv5): Sequential(
            (0): Conv2d(32, 32, kernel_size=(5, 5), stride=(1, 1), padding=(2, 2))
            (1): LeakyReLU(negative_slope=0.2, inplace=True)
          )
          (conv7): Sequential(
            (0): Conv2d(32, 32, kernel_size=(7, 7), stride=(1, 1), padding=(3, 3))
            (1): LeakyReLU(negative_slope=0.2, inplace=True)
          )
          (conv9): Sequential(
            (0): Conv2d(32, 32, kernel_size=(9, 9), stride=(1, 1), padding=(4, 4))
            (1): LeakyReLU(negative_slope=0.2, inplace=True)
          )
        )
        (3): MSDB(
          (conv_first): Sequential(
            (0): Conv2d(64, 32, kernel_size=(3, 3), stride=(1, 1), padding=(1, 1))
            (1): LeakyReLU(negative_slope=0.2, inplace=True)
          )
          (conv1): Sequential(
            (0): Conv2d(32, 32, kernel_size=(3, 3), stride=(1, 1), padding=(1, 1))
            (1): LeakyReLU(negative_slope=0.2, inplace=True)
          )
          (conv2): Sequential(
            (0): Conv2d(96, 32, kernel_size=(3, 3), stride=(1, 1), padding=(1, 1))
            (1): LeakyReLU(negative_slope=0.2, inplace=True)
          )
          (conv3): Sequential(
            (0): Conv2d(160, 32, kernel_size=(3, 3), stride=(1, 1), padding=(1, 1))
            (1): LeakyReLU(negative_slope=0.2, inplace=True)
          )
          (conv4): Sequential(
            (0): Conv2d(224, 64, kernel_size=(3, 3), stride=(1, 1), padding=(1, 1))
            (1): LeakyReLU(negative_slope=0.2, inplace=True)
          )
          (conv5): Sequential(
            (0): Conv2d(32, 32, kernel_size=(5, 5), stride=(1, 1), padding=(2, 2))
            (1): LeakyReLU(negative_slope=0.2, inplace=True)
          )
          (conv7): Sequential(
            (0): Conv2d(32, 32, kernel_size=(7, 7), stride=(1, 1), padding=(3, 3))
            (1): LeakyReLU(negative_slope=0.2, inplace=True)
          )
          (conv9): Sequential(
            (0): Conv2d(32, 32, kernel_size=(9, 9), stride=(1, 1), padding=(4, 4))
            (1): LeakyReLU(negative_slope=0.2, inplace=True)
          )
        )
      )
    )
    (upsampling): upsampling(
      (up): Sequential(
        (0): Conv2d(64, 64, kernel_size=(3, 3), stride=(1, 1), padding=(1, 1))
        (1): PixelShuffle(upscale_factor=2)
        (2): Conv2d(16, 64, kernel_size=(3, 3), stride=(1, 1), padding=(1, 1))
        (3): LeakyReLU(negative_slope=0.2, inplace=True)
      )
    )
    (DWT2): DWT2(
      (conv): Sequential(
        (0): Conv2d(64, 64, kernel_size=(3, 3), stride=(1, 1), padding=(1, 1))
        (1): LeakyReLU(negative_slope=0.2, inplace=True)
      )
      (conv1): Sequential(
        (0): Conv2d(256, 64, kernel_size=(3, 3), stride=(1, 1), padding=(1, 1))
        (1): LeakyReLU(negative_slope=0.2, inplace=True)
      )
      (DWT): DWT()
      (SMSDB): SMSDB(
        (layers): Sequential(
          (0): MSDB(
            (conv_first): Sequential(
              (0): Conv2d(64, 32, kernel_size=(3, 3), stride=(1, 1), padding=(1, 1))
              (1): LeakyReLU(negative_slope=0.2, inplace=True)
            )
            (conv1): Sequential(
              (0): Conv2d(32, 32, kernel_size=(3, 3), stride=(1, 1), padding=(1, 1))
              (1): LeakyReLU(negative_slope=0.2, inplace=True)
            )
            (conv2): Sequential(
              (0): Conv2d(96, 32, kernel_size=(3, 3), stride=(1, 1), padding=(1, 1))
              (1): LeakyReLU(negative_slope=0.2, inplace=True)
            )
            (conv3): Sequential(
              (0): Conv2d(160, 32, kernel_size=(3, 3), stride=(1, 1), padding=(1, 1))
              (1): LeakyReLU(negative_slope=0.2, inplace=True)
            )
            (conv4): Sequential(
              (0): Conv2d(224, 64, kernel_size=(3, 3), stride=(1, 1), padding=(1, 1))
              (1): LeakyReLU(negative_slope=0.2, inplace=True)
            )
            (conv5): Sequential(
              (0): Conv2d(32, 32, kernel_size=(5, 5), stride=(1, 1), padding=(2, 2))
              (1): LeakyReLU(negative_slope=0.2, inplace=True)
            )
            (conv7): Sequential(
              (0): Conv2d(32, 32, kernel_size=(7, 7), stride=(1, 1), padding=(3, 3))
              (1): LeakyReLU(negative_slope=0.2, inplace=True)
            )
            (conv9): Sequential(
              (0): Conv2d(32, 32, kernel_size=(9, 9), stride=(1, 1), padding=(4, 4))
              (1): LeakyReLU(negative_slope=0.2, inplace=True)
            )
          )
          (1): MSDB(
            (conv_first): Sequential(
              (0): Conv2d(64, 32, kernel_size=(3, 3), stride=(1, 1), padding=(1, 1))
              (1): LeakyReLU(negative_slope=0.2, inplace=True)
            )
            (conv1): Sequential(
              (0): Conv2d(32, 32, kernel_size=(3, 3), stride=(1, 1), padding=(1, 1))
              (1): LeakyReLU(negative_slope=0.2, inplace=True)
            )
            (conv2): Sequential(
              (0): Conv2d(96, 32, kernel_size=(3, 3), stride=(1, 1), padding=(1, 1))
              (1): LeakyReLU(negative_slope=0.2, inplace=True)
            )
            (conv3): Sequential(
              (0): Conv2d(160, 32, kernel_size=(3, 3), stride=(1, 1), padding=(1, 1))
              (1): LeakyReLU(negative_slope=0.2, inplace=True)
            )
            (conv4): Sequential(
              (0): Conv2d(224, 64, kernel_size=(3, 3), stride=(1, 1), padding=(1, 1))
              (1): LeakyReLU(negative_slope=0.2, inplace=True)
            )
            (conv5): Sequential(
              (0): Conv2d(32, 32, kernel_size=(5, 5), stride=(1, 1), padding=(2, 2))
              (1): LeakyReLU(negative_slope=0.2, inplace=True)
            )
            (conv7): Sequential(
              (0): Conv2d(32, 32, kernel_size=(7, 7), stride=(1, 1), padding=(3, 3))
              (1): LeakyReLU(negative_slope=0.2, inplace=True)
            )
            (conv9): Sequential(
              (0): Conv2d(32, 32, kernel_size=(9, 9), stride=(1, 1), padding=(4, 4))
              (1): LeakyReLU(negative_slope=0.2, inplace=True)
            )
          )
          (2): MSDB(
            (conv_first): Sequential(
              (0): Conv2d(64, 32, kernel_size=(3, 3), stride=(1, 1), padding=(1, 1))
              (1): LeakyReLU(negative_slope=0.2, inplace=True)
            )
            (conv1): Sequential(
              (0): Conv2d(32, 32, kernel_size=(3, 3), stride=(1, 1), padding=(1, 1))
              (1): LeakyReLU(negative_slope=0.2, inplace=True)
            )
            (conv2): Sequential(
              (0): Conv2d(96, 32, kernel_size=(3, 3), stride=(1, 1), padding=(1, 1))
              (1): LeakyReLU(negative_slope=0.2, inplace=True)
            )
            (conv3): Sequential(
              (0): Conv2d(160, 32, kernel_size=(3, 3), stride=(1, 1), padding=(1, 1))
              (1): LeakyReLU(negative_slope=0.2, inplace=True)
            )
            (conv4): Sequential(
              (0): Conv2d(224, 64, kernel_size=(3, 3), stride=(1, 1), padding=(1, 1))
              (1): LeakyReLU(negative_slope=0.2, inplace=True)
            )
            (conv5): Sequential(
              (0): Conv2d(32, 32, kernel_size=(5, 5), stride=(1, 1), padding=(2, 2))
              (1): LeakyReLU(negative_slope=0.2, inplace=True)
            )
            (conv7): Sequential(
              (0): Conv2d(32, 32, kernel_size=(7, 7), stride=(1, 1), padding=(3, 3))
              (1): LeakyReLU(negative_slope=0.2, inplace=True)
            )
            (conv9): Sequential(
              (0): Conv2d(32, 32, kernel_size=(9, 9), stride=(1, 1), padding=(4, 4))
              (1): LeakyReLU(negative_slope=0.2, inplace=True)
            )
          )
          (3): MSDB(
            (conv_first): Sequential(
              (0): Conv2d(64, 32, kernel_size=(3, 3), stride=(1, 1), padding=(1, 1))
              (1): LeakyReLU(negative_slope=0.2, inplace=True)
            )
            (conv1): Sequential(
              (0): Conv2d(32, 32, kernel_size=(3, 3), stride=(1, 1), padding=(1, 1))
              (1): LeakyReLU(negative_slope=0.2, inplace=True)
            )
            (conv2): Sequential(
              (0): Conv2d(96, 32, kernel_size=(3, 3), stride=(1, 1), padding=(1, 1))
              (1): LeakyReLU(negative_slope=0.2, inplace=True)
            )
            (conv3): Sequential(
              (0): Conv2d(160, 32, kernel_size=(3, 3), stride=(1, 1), padding=(1, 1))
              (1): LeakyReLU(negative_slope=0.2, inplace=True)
            )
            (conv4): Sequential(
              (0): Conv2d(224, 64, kernel_size=(3, 3), stride=(1, 1), padding=(1, 1))
              (1): LeakyReLU(negative_slope=0.2, inplace=True)
            )
            (conv5): Sequential(
              (0): Conv2d(32, 32, kernel_size=(5, 5), stride=(1, 1), padding=(2, 2))
              (1): LeakyReLU(negative_slope=0.2, inplace=True)
            )
            (conv7): Sequential(
              (0): Conv2d(32, 32, kernel_size=(7, 7), stride=(1, 1), padding=(3, 3))
              (1): LeakyReLU(negative_slope=0.2, inplace=True)
            )
            (conv9): Sequential(
              (0): Conv2d(32, 32, kernel_size=(9, 9), stride=(1, 1), padding=(4, 4))
              (1): LeakyReLU(negative_slope=0.2, inplace=True)
            )
          )
        )
      )
    )
    (IWT): IWT()
    (conv1): Sequential(
      (0): Conv2d(64, 64, kernel_size=(3, 3), stride=(1, 1), padding=(1, 1))
      (1): LeakyReLU(negative_slope=0.2, inplace=True)
    )
    (conv2): Sequential(
      (0): Conv2d(64, 256, kernel_size=(3, 3), stride=(1, 1), padding=(1, 1))
      (1): LeakyReLU(negative_slope=0.2, inplace=True)
    )
  )
  (upsampling): upsampling(
    (up): Sequential(
      (0): Conv2d(64, 64, kernel_size=(3, 3), stride=(1, 1), padding=(1, 1))
      (1): PixelShuffle(upscale_factor=2)
      (2): Conv2d(16, 64, kernel_size=(3, 3), stride=(1, 1), padding=(1, 1))
      (3): LeakyReLU(negative_slope=0.2, inplace=True)
    )
  )
  (conv): Sequential(
    (0): Conv2d(64, 64, kernel_size=(3, 3), stride=(1, 1), padding=(1, 1))
    (1): LeakyReLU(negative_slope=0.2, inplace=True)
  )
  (conv_last): Sequential(
    (0): Conv2d(64, 3, kernel_size=(3, 3), stride=(1, 1), padding=(1, 1))
  )
)
2024-03-02 18:28:19,176 INFO: Use Exponential Moving Average with decay: 0.999
2024-03-02 18:28:19,232 INFO: Network [WFFGAN] is created.
2024-03-02 18:28:19,246 INFO: Loss [L1Loss] is created.
2024-03-02 18:28:19,247 INFO: Model [SRModel] is created.
2024-03-02 18:28:19,549 INFO: Start training from epoch: 0, iter: 0
2024-03-02 18:28:59,168 INFO: [WFFGA..][epoch:  0, iter:     100, lr:(2.000e-04,)] [eta: 2 days, 3:22:47, time (data): 0.396 (0.007)] l_pix: 6.2203e-02 
…
