…
2024-03-08 09:48:56,633 INFO: Dataset [PairedImageDataset] - set14 is built.
2024-03-08 09:48:56,633 INFO: Number of test images in set14: 14
2024-03-08 09:48:56,635 INFO: Dataset [PairedImageDataset] - BSD100 is built.
2024-03-08 09:48:56,635 INFO: Number of test images in BSD100: 100
2024-03-08 09:48:56,637 INFO: Dataset [PairedImageDataset] - Urban100 is built.
2024-03-08 09:48:56,637 INFO: Number of test images in Urban100: 100
2024-03-08 09:48:56,697 INFO: Network [WFFGAN] is created.
2024-03-08 09:48:57,124 INFO: Network: WFFGAN, with parameters: 7,193,987
2024-03-08 09:48:57,124 INFO: WFFGAN(
  (conv_first): Conv2d(3, 64, kernel_size=(3, 3), stride=(1, 1), padding=(1, 1))
  (stage1): Stage1(
    (SMSDB): SMSDB(
      (layers): Sequential(
        (0): MSDB(
          (conv_first): Sequential(
            (0): Conv2d(64, 32, kernel_size=(3, 3), stride=(1, 1), padding=(1, 1))
            (1): LeakyReLU(negative_slope=0.2, inplace=True)
          )
          (conv1): Sequential(
            (0): Conv2d(32, 32, kernel_size=(3, 3), stride=(1, 1), padding=(1, 1))
            (1): LeakyReLU(negative_slope=0.2, inplace=True)
          )
          (conv2): Sequential(
            (0): Conv2d(96, 32, kernel_size=(3, 3), stride=(1, 1), padding=(1, 1))
            (1): LeakyReLU(negative_slope=0.2, inplace=True)
          )
          (conv3): Sequential(
            (0): Conv2d(160, 32, kernel_size=(3, 3), stride=(1, 1), padding=(1, 1))
            (1): LeakyReLU(negative_slope=0.2, inplace=True)
          )
          (conv4): Sequential(
            (0): Conv2d(224, 64, kernel_size=(3, 3), stride=(1, 1), padding=(1, 1))
            (1): LeakyReLU(negative_slope=0.2, inplace=True)
          )
          (conv5): Sequential(
            (0): Conv2d(32, 32, kernel_size=(5, 5), stride=(1, 1), padding=(2, 2))
            (1): LeakyReLU(negative_slope=0.2, inplace=True)
          )
          (conv7): Sequential(
            (0): Conv2d(32, 32, kernel_size=(7, 7), stride=(1, 1), padding=(3, 3))
            (1): LeakyReLU(negative_slope=0.2, inplace=True)
          )
          (conv9): Sequential(
            (0): Conv2d(32, 32, kernel_size=(9, 9), stride=(1, 1), padding=(4, 4))
            (1): LeakyReLU(negative_slope=0.2, inplace=True)
          )
        )
        (1): MSDB(
          (conv_first): Sequential(
            (0): Conv2d(64, 32, kernel_size=(3, 3), stride=(1, 1), padding=(1, 1))
            (1): LeakyReLU(negative_slope=0.2, inplace=True)
          )
          (conv1): Sequential(
            (0): Conv2d(32, 32, kernel_size=(3, 3), stride=(1, 1), padding=(1, 1))
            (1): LeakyReLU(negative_slope=0.2, inplace=True)
          )
          (conv2): Sequential(
            (0): Conv2d(96, 32, kernel_size=(3, 3), stride=(1, 1), padding=(1, 1))
            (1): LeakyReLU(negative_slope=0.2, inplace=True)
          )
          (conv3): Sequential(
            (0): Conv2d(160, 32, kernel_size=(3, 3), stride=(1, 1), padding=(1, 1))
            (1): LeakyReLU(negative_slope=0.2, inplace=True)
          )
          (conv4): Sequential(
            (0): Conv2d(224, 64, kernel_size=(3, 3), stride=(1, 1), padding=(1, 1))
            (1): LeakyReLU(negative_slope=0.2, inplace=True)
          )
          (conv5): Sequential(
            (0): Conv2d(32, 32, kernel_size=(5, 5), stride=(1, 1), padding=(2, 2))
            (1): LeakyReLU(negative_slope=0.2, inplace=True)
          )
          (conv7): Sequential(
            (0): Conv2d(32, 32, kernel_size=(7, 7), stride=(1, 1), padding=(3, 3))
            (1): LeakyReLU(negative_slope=0.2, inplace=True)
          )
          (conv9): Sequential(
            (0): Conv2d(32, 32, kernel_size=(9, 9), stride=(1, 1), padding=(4, 4))
            (1): LeakyReLU(negative_slope=0.2, inplace=True)
          )
        )
        (2): MSDB(
          (conv_first): Sequential(
            (0): Conv2d(64, 32, kernel_size=(3, 3), stride=(1, 1), padding=(1, 1))
            (1): LeakyReLU(negative_slope=0.2, inplace=True)
          )
          (conv1): Sequential(
            (0): Conv2d(32, 32, kernel_size=(3, 3), stride=(1, 1), padding=(1, 1))
            (1): LeakyReLU(negative_slope=0.2, inplace=True)
          )
          (conv2): Sequential(
            (0): Conv2d(96, 32, kernel_size=(3, 3), stride=(1, 1), padding=(1, 1))
            (1): LeakyReLU(negative_slope=0.2, inplace=True)
          )
          (conv3): Sequential(
            (0): Conv2d(160, 32, kernel_size=(3, 3), stride=(1, 1), padding=(1, 1))
            (1): LeakyReLU(negative_slope=0.2, inplace=True)
          )
          (conv4): Sequential(
            (0): Conv2d(224, 64, kernel_size=(3, 3), stride=(1, 1), padding=(1, 1))
            (1): LeakyReLU(negative_slope=0.2, inplace=True)
          )
          (conv5): Sequential(
            (0): Conv2d(32, 32, kernel_size=(5, 5), stride=(1, 1), padding=(2, 2))
            (1): LeakyReLU(negative_slope=0.2, inplace=True)
          )
          (conv7): Sequential(
            (0): Conv2d(32, 32, kernel_size=(7, 7), stride=(1, 1), padding=(3, 3))
            (1): LeakyReLU(negative_slope=0.2, inplace=True)
          )
          (conv9): Sequential(
            (0): Conv2d(32, 32, kernel_size=(9, 9), stride=(1, 1), padding=(4, 4))
            (1): LeakyReLU(negative_slope=0.2, inplace=True)
          )
        )
        (3): MSDB(
          (conv_first): Sequential(
            (0): Conv2d(64, 32, kernel_size=(3, 3), stride=(1, 1), padding=(1, 1))
            (1): LeakyReLU(negative_slope=0.2, inplace=True)
          )
          (conv1): Sequential(
            (0): Conv2d(32, 32, kernel_size=(3, 3), stride=(1, 1), padding=(1, 1))
            (1): LeakyReLU(negative_slope=0.2, inplace=True)
          )
          (conv2): Sequential(
            (0): Conv2d(96, 32, kernel_size=(3, 3), stride=(1, 1), padding=(1, 1))
            (1): LeakyReLU(negative_slope=0.2, inplace=True)
          )
          (conv3): Sequential(
            (0): Conv2d(160, 32, kernel_size=(3, 3), stride=(1, 1), padding=(1, 1))
            (1): LeakyReLU(negative_slope=0.2, inplace=True)
          )
          (conv4): Sequential(
            (0): Conv2d(224, 64, kernel_size=(3, 3), stride=(1, 1), padding=(1, 1))
            (1): LeakyReLU(negative_slope=0.2, inplace=True)
          )
          (conv5): Sequential(
            (0): Conv2d(32, 32, kernel_size=(5, 5), stride=(1, 1), padding=(2, 2))
            (1): LeakyReLU(negative_slope=0.2, inplace=True)
          )
          (conv7): Sequential(
            (0): Conv2d(32, 32, kernel_size=(7, 7), stride=(1, 1), padding=(3, 3))
            (1): LeakyReLU(negative_slope=0.2, inplace=True)
          )
          (conv9): Sequential(
            (0): Conv2d(32, 32, kernel_size=(9, 9), stride=(1, 1), padding=(4, 4))
            (1): LeakyReLU(negative_slope=0.2, inplace=True)
          )
        )
      )
    )
    (upsampling): upsampling(
      (up): Sequential(
        (0): Conv2d(64, 64, kernel_size=(3, 3), stride=(1, 1), padding=(1, 1))
        (1): PixelShuffle(upscale_factor=2)
        (2): Conv2d(16, 64, kernel_size=(3, 3), stride=(1, 1), padding=(1, 1))
        (3): LeakyReLU(negative_slope=0.2, inplace=True)
      )
    )
    (DWT1): DWT1(
      (conv): Sequential(
        (0): Conv2d(64, 64, kernel_size=(3, 3), stride=(1, 1), padding=(1, 1))
        (1): LeakyReLU(negative_slope=0.2, inplace=True)
      )
      (conv1): Sequential(
        (0): Conv2d(256, 64, kernel_size=(3, 3), stride=(1, 1), padding=(1, 1))
        (1): LeakyReLU(negative_slope=0.2, inplace=True)
      )
      (DWT): DWT()
      (SMSDB): SMSDB(
        (layers): Sequential(
          (0): MSDB(
            (conv_first): Sequential(
              (0): Conv2d(64, 32, kernel_size=(3, 3), stride=(1, 1), padding=(1, 1))
              (1): LeakyReLU(negative_slope=0.2, inplace=True)
            )
            (conv1): Sequential(
              (0): Conv2d(32, 32, kernel_size=(3, 3), stride=(1, 1), padding=(1, 1))
              (1): LeakyReLU(negative_slope=0.2, inplace=True)
            )
            (conv2): Sequential(
              (0): Conv2d(96, 32, kernel_size=(3, 3), stride=(1, 1), padding=(1, 1))
              (1): LeakyReLU(negative_slope=0.2, inplace=True)
            )
            (conv3): Sequential(
              (0): Conv2d(160, 32, kernel_size=(3, 3), stride=(1, 1), padding=(1, 1))
              (1): LeakyReLU(negative_slope=0.2, inplace=True)
            )
            (conv4): Sequential(
              (0): Conv2d(224, 64, kernel_size=(3, 3), stride=(1, 1), padding=(1, 1))
              (1): LeakyReLU(negative_slope=0.2, inplace=True)
            )
            (conv5): Sequential(
              (0): Conv2d(32, 32, kernel_size=(5, 5), stride=(1, 1), padding=(2, 2))
              (1): LeakyReLU(negative_slope=0.2, inplace=True)
            )
            (conv7): Sequential(
              (0): Conv2d(32, 32, kernel_size=(7, 7), stride=(1, 1), padding=(3, 3))
              (1): LeakyReLU(negative_slope=0.2, inplace=True)
            )
            (conv9): Sequential(
              (0): Conv2d(32, 32, kernel_size=(9, 9), stride=(1, 1), padding=(4, 4))
              (1): LeakyReLU(negative_slope=0.2, inplace=True)
            )
          )
          (1): MSDB(
            (conv_first): Sequential(
              (0): Conv2d(64, 32, kernel_size=(3, 3), stride=(1, 1), padding=(1, 1))
              (1): LeakyReLU(negative_slope=0.2, inplace=True)
            )
            (conv1): Sequential(
              (0): Conv2d(32, 32, kernel_size=(3, 3), stride=(1, 1), padding=(1, 1))
              (1): LeakyReLU(negative_slope=0.2, inplace=True)
            )
            (conv2): Sequential(
              (0): Conv2d(96, 32, kernel_size=(3, 3), stride=(1, 1), padding=(1, 1))
              (1): LeakyReLU(negative_slope=0.2, inplace=True)
            )
            (conv3): Sequential(
              (0): Conv2d(160, 32, kernel_size=(3, 3), stride=(1, 1), padding=(1, 1))
              (1): LeakyReLU(negative_slope=0.2, inplace=True)
            )
            (conv4): Sequential(
              (0): Conv2d(224, 64, kernel_size=(3, 3), stride=(1, 1), padding=(1, 1))
              (1): LeakyReLU(negative_slope=0.2, inplace=True)
            )
            (conv5): Sequential(
              (0): Conv2d(32, 32, kernel_size=(5, 5), stride=(1, 1), padding=(2, 2))
              (1): LeakyReLU(negative_slope=0.2, inplace=True)
            )
            (conv7): Sequential(
              (0): Conv2d(32, 32, kernel_size=(7, 7), stride=(1, 1), padding=(3, 3))
              (1): LeakyReLU(negative_slope=0.2, inplace=True)
            )
            (conv9): Sequential(
              (0): Conv2d(32, 32, kernel_size=(9, 9), stride=(1, 1), padding=(4, 4))
              (1): LeakyReLU(negative_slope=0.2, inplace=True)
            )
          )
          (2): MSDB(
            (conv_first): Sequential(
              (0): Conv2d(64, 32, kernel_size=(3, 3), stride=(1, 1), padding=(1, 1))
              (1): LeakyReLU(negative_slope=0.2, inplace=True)
            )
            (conv1): Sequential(
              (0): Conv2d(32, 32, kernel_size=(3, 3), stride=(1, 1), padding=(1, 1))
              (1): LeakyReLU(negative_slope=0.2, inplace=True)
            )
            (conv2): Sequential(
              (0): Conv2d(96, 32, kernel_size=(3, 3), stride=(1, 1), padding=(1, 1))
              (1): LeakyReLU(negative_slope=0.2, inplace=True)
            )
            (conv3): Sequential(
              (0): Conv2d(160, 32, kernel_size=(3, 3), stride=(1, 1), padding=(1, 1))
              (1): LeakyReLU(negative_slope=0.2, inplace=True)
            )
            (conv4): Sequential(
              (0): Conv2d(224, 64, kernel_size=(3, 3), stride=(1, 1), padding=(1, 1))
              (1): LeakyReLU(negative_slope=0.2, inplace=True)
            )
            (conv5): Sequential(
              (0): Conv2d(32, 32, kernel_size=(5, 5), stride=(1, 1), padding=(2, 2))
              (1): LeakyReLU(negative_slope=0.2, inplace=True)
            )
            (conv7): Sequential(
              (0): Conv2d(32, 32, kernel_size=(7, 7), stride=(1, 1), padding=(3, 3))
              (1): LeakyReLU(negative_slope=0.2, inplace=True)
            )
            (conv9): Sequential(
              (0): Conv2d(32, 32, kernel_size=(9, 9), stride=(1, 1), padding=(4, 4))
              (1): LeakyReLU(negative_slope=0.2, inplace=True)
            )
          )
          (3): MSDB(
            (conv_first): Sequential(
              (0): Conv2d(64, 32, kernel_size=(3, 3), stride=(1, 1), padding=(1, 1))
              (1): LeakyReLU(negative_slope=0.2, inplace=True)
            )
            (conv1): Sequential(
              (0): Conv2d(32, 32, kernel_size=(3, 3), stride=(1, 1), padding=(1, 1))
              (1): LeakyReLU(negative_slope=0.2, inplace=True)
            )
            (conv2): Sequential(
              (0): Conv2d(96, 32, kernel_size=(3, 3), stride=(1, 1), padding=(1, 1))
              (1): LeakyReLU(negative_slope=0.2, inplace=True)
            )
            (conv3): Sequential(
              (0): Conv2d(160, 32, kernel_size=(3, 3), stride=(1, 1), padding=(1, 1))
              (1): LeakyReLU(negative_slope=0.2, inplace=True)
            )
            (conv4): Sequential(
              (0): Conv2d(224, 64, kernel_size=(3, 3), stride=(1, 1), padding=(1, 1))
              (1): LeakyReLU(negative_slope=0.2, inplace=True)
            )
            (conv5): Sequential(
              (0): Conv2d(32, 32, kernel_size=(5, 5), stride=(1, 1), padding=(2, 2))
              (1): LeakyReLU(negative_slope=0.2, inplace=True)
            )
            (conv7): Sequential(
              (0): Conv2d(32, 32, kernel_size=(7, 7), stride=(1, 1), padding=(3, 3))
              (1): LeakyReLU(negative_slope=0.2, inplace=True)
            )
            (conv9): Sequential(
              (0): Conv2d(32, 32, kernel_size=(9, 9), stride=(1, 1), padding=(4, 4))
              (1): LeakyReLU(negative_slope=0.2, inplace=True)
            )
          )
        )
      )
      (upsampling): upsampling(
        (up): Sequential(
          (0): Conv2d(64, 64, kernel_size=(3, 3), stride=(1, 1), padding=(1, 1))
          (1): PixelShuffle(upscale_factor=2)
          (2): Conv2d(16, 64, kernel_size=(3, 3), stride=(1, 1), padding=(1, 1))
          (3): LeakyReLU(negative_slope=0.2, inplace=True)
        )
      )
    )
    (IWT): IWT()
    (conv1): Sequential(
      (0): Conv2d(64, 64, kernel_size=(3, 3), stride=(1, 1), padding=(1, 1))
      (1): LeakyReLU(negative_slope=0.2, inplace=True)
    )
    (conv2): Sequential(
      (0): Conv2d(64, 256, kernel_size=(3, 3), stride=(1, 1), padding=(1, 1))
      (1): LeakyReLU(negative_slope=0.2, inplace=True)
    )
  )
  (stage2): Stage2(
    (SMSDB): SMSDB(
      (layers): Sequential(
        (0): MSDB(
          (conv_first): Sequential(
            (0): Conv2d(64, 32, kernel_size=(3, 3), stride=(1, 1), padding=(1, 1))
            (1): LeakyReLU(negative_slope=0.2, inplace=True)
          )
          (conv1): Sequential(
            (0): Conv2d(32, 32, kernel_size=(3, 3), stride=(1, 1), padding=(1, 1))
            (1): LeakyReLU(negative_slope=0.2, inplace=True)
          )
          (conv2): Sequential(
            (0): Conv2d(96, 32, kernel_size=(3, 3), stride=(1, 1), padding=(1, 1))
            (1): LeakyReLU(negative_slope=0.2, inplace=True)
          )
          (conv3): Sequential(
            (0): Conv2d(160, 32, kernel_size=(3, 3), stride=(1, 1), padding=(1, 1))
            (1): LeakyReLU(negative_slope=0.2, inplace=True)
          )
          (conv4): Sequential(
            (0): Conv2d(224, 64, kernel_size=(3, 3), stride=(1, 1), padding=(1, 1))
            (1): LeakyReLU(negative_slope=0.2, inplace=True)
          )
          (conv5): Sequential(
            (0): Conv2d(32, 32, kernel_size=(5, 5), stride=(1, 1), padding=(2, 2))
            (1): LeakyReLU(negative_slope=0.2, inplace=True)
          )
          (conv7): Sequential(
            (0): Conv2d(32, 32, kernel_size=(7, 7), stride=(1, 1), padding=(3, 3))
            (1): LeakyReLU(negative_slope=0.2, inplace=True)
          )
          (conv9): Sequential(
            (0): Conv2d(32, 32, kernel_size=(9, 9), stride=(1, 1), padding=(4, 4))
            (1): LeakyReLU(negative_slope=0.2, inplace=True)
          )
        )
        (1): MSDB(
          (conv_first): Sequential(
            (0): Conv2d(64, 32, kernel_size=(3, 3), stride=(1, 1), padding=(1, 1))
            (1): LeakyReLU(negative_slope=0.2, inplace=True)
          )
          (conv1): Sequential(
            (0): Conv2d(32, 32, kernel_size=(3, 3), stride=(1, 1), padding=(1, 1))
            (1): LeakyReLU(negative_slope=0.2, inplace=True)
          )
          (conv2): Sequential(
            (0): Conv2d(96, 32, kernel_size=(3, 3), stride=(1, 1), padding=(1, 1))
            (1): LeakyReLU(negative_slope=0.2, inplace=True)
          )
          (conv3): Sequential(
            (0): Conv2d(160, 32, kernel_size=(3, 3), stride=(1, 1), padding=(1, 1))
            (1): LeakyReLU(negative_slope=0.2, inplace=True)
          )
          (conv4): Sequential(
            (0): Conv2d(224, 64, kernel_size=(3, 3), stride=(1, 1), padding=(1, 1))
            (1): LeakyReLU(negative_slope=0.2, inplace=True)
          )
          (conv5): Sequential(
            (0): Conv2d(32, 32, kernel_size=(5, 5), stride=(1, 1), padding=(2, 2))
            (1): LeakyReLU(negative_slope=0.2, inplace=True)
          )
          (conv7): Sequential(
            (0): Conv2d(32, 32, kernel_size=(7, 7), stride=(1, 1), padding=(3, 3))
            (1): LeakyReLU(negative_slope=0.2, inplace=True)
          )
          (conv9): Sequential(
            (0): Conv2d(32, 32, kernel_size=(9, 9), stride=(1, 1), padding=(4, 4))
            (1): LeakyReLU(negative_slope=0.2, inplace=True)
          )
        )
        (2): MSDB(
          (conv_first): Sequential(
            (0): Conv2d(64, 32, kernel_size=(3, 3), stride=(1, 1), padding=(1, 1))
            (1): LeakyReLU(negative_slope=0.2, inplace=True)
          )
          (conv1): Sequential(
            (0): Conv2d(32, 32, kernel_size=(3, 3), stride=(1, 1), padding=(1, 1))
            (1): LeakyReLU(negative_slope=0.2, inplace=True)
          )
          (conv2): Sequential(
            (0): Conv2d(96, 32, kernel_size=(3, 3), stride=(1, 1), padding=(1, 1))
            (1): LeakyReLU(negative_slope=0.2, inplace=True)
          )
          (conv3): Sequential(
            (0): Conv2d(160, 32, kernel_size=(3, 3), stride=(1, 1), padding=(1, 1))
            (1): LeakyReLU(negative_slope=0.2, inplace=True)
          )
          (conv4): Sequential(
            (0): Conv2d(224, 64, kernel_size=(3, 3), stride=(1, 1), padding=(1, 1))
            (1): LeakyReLU(negative_slope=0.2, inplace=True)
          )
          (conv5): Sequential(
            (0): Conv2d(32, 32, kernel_size=(5, 5), stride=(1, 1), padding=(2, 2))
            (1): LeakyReLU(negative_slope=0.2, inplace=True)
          )
          (conv7): Sequential(
            (0): Conv2d(32, 32, kernel_size=(7, 7), stride=(1, 1), padding=(3, 3))
            (1): LeakyReLU(negative_slope=0.2, inplace=True)
          )
          (conv9): Sequential(
            (0): Conv2d(32, 32, kernel_size=(9, 9), stride=(1, 1), padding=(4, 4))
            (1): LeakyReLU(negative_slope=0.2, inplace=True)
          )
        )
        (3): MSDB(
          (conv_first): Sequential(
            (0): Conv2d(64, 32, kernel_size=(3, 3), stride=(1, 1), padding=(1, 1))
            (1): LeakyReLU(negative_slope=0.2, inplace=True)
          )
          (conv1): Sequential(
            (0): Conv2d(32, 32, kernel_size=(3, 3), stride=(1, 1), padding=(1, 1))
            (1): LeakyReLU(negative_slope=0.2, inplace=True)
          )
          (conv2): Sequential(
            (0): Conv2d(96, 32, kernel_size=(3, 3), stride=(1, 1), padding=(1, 1))
            (1): LeakyReLU(negative_slope=0.2, inplace=True)
          )
          (conv3): Sequential(
            (0): Conv2d(160, 32, kernel_size=(3, 3), stride=(1, 1), padding=(1, 1))
            (1): LeakyReLU(negative_slope=0.2, inplace=True)
          )
          (conv4): Sequential(
            (0): Conv2d(224, 64, kernel_size=(3, 3), stride=(1, 1), padding=(1, 1))
            (1): LeakyReLU(negative_slope=0.2, inplace=True)
          )
          (conv5): Sequential(
            (0): Conv2d(32, 32, kernel_size=(5, 5), stride=(1, 1), padding=(2, 2))
            (1): LeakyReLU(negative_slope=0.2, inplace=True)
          )
          (conv7): Sequential(
            (0): Conv2d(32, 32, kernel_size=(7, 7), stride=(1, 1), padding=(3, 3))
            (1): LeakyReLU(negative_slope=0.2, inplace=True)
          )
          (conv9): Sequential(
            (0): Conv2d(32, 32, kernel_size=(9, 9), stride=(1, 1), padding=(4, 4))
            (1): LeakyReLU(negative_slope=0.2, inplace=True)
          )
        )
      )
    )
    (upsampling): upsampling(
      (up): Sequential(
        (0): Conv2d(64, 64, kernel_size=(3, 3), stride=(1, 1), padding=(1, 1))
        (1): PixelShuffle(upscale_factor=2)
        (2): Conv2d(16, 64, kernel_size=(3, 3), stride=(1, 1), padding=(1, 1))
        (3): LeakyReLU(negative_slope=0.2, inplace=True)
      )
    )
    (DWT2): DWT2(
      (conv): Sequential(
        (0): Conv2d(64, 64, kernel_size=(3, 3), stride=(1, 1), padding=(1, 1))
        (1): LeakyReLU(negative_slope=0.2, inplace=True)
      )
      (conv1): Sequential(
        (0): Conv2d(256, 64, kernel_size=(3, 3), stride=(1, 1), padding=(1, 1))
        (1): LeakyReLU(negative_slope=0.2, inplace=True)
      )
      (DWT): DWT()
      (SMSDB): SMSDB(
        (layers): Sequential(
          (0): MSDB(
            (conv_first): Sequential(
              (0): Conv2d(64, 32, kernel_size=(3, 3), stride=(1, 1), padding=(1, 1))
              (1): LeakyReLU(negative_slope=0.2, inplace=True)
            )
            (conv1): Sequential(
              (0): Conv2d(32, 32, kernel_size=(3, 3), stride=(1, 1), padding=(1, 1))
              (1): LeakyReLU(negative_slope=0.2, inplace=True)
            )
            (conv2): Sequential(
              (0): Conv2d(96, 32, kernel_size=(3, 3), stride=(1, 1), padding=(1, 1))
              (1): LeakyReLU(negative_slope=0.2, inplace=True)
            )
            (conv3): Sequential(
              (0): Conv2d(160, 32, kernel_size=(3, 3), stride=(1, 1), padding=(1, 1))
              (1): LeakyReLU(negative_slope=0.2, inplace=True)
            )
            (conv4): Sequential(
              (0): Conv2d(224, 64, kernel_size=(3, 3), stride=(1, 1), padding=(1, 1))
              (1): LeakyReLU(negative_slope=0.2, inplace=True)
            )
            (conv5): Sequential(
              (0): Conv2d(32, 32, kernel_size=(5, 5), stride=(1, 1), padding=(2, 2))
              (1): LeakyReLU(negative_slope=0.2, inplace=True)
            )
            (conv7): Sequential(
              (0): Conv2d(32, 32, kernel_size=(7, 7), stride=(1, 1), padding=(3, 3))
              (1): LeakyReLU(negative_slope=0.2, inplace=True)
            )
            (conv9): Sequential(
              (0): Conv2d(32, 32, kernel_size=(9, 9), stride=(1, 1), padding=(4, 4))
              (1): LeakyReLU(negative_slope=0.2, inplace=True)
            )
          )
          (1): MSDB(
            (conv_first): Sequential(
              (0): Conv2d(64, 32, kernel_size=(3, 3), stride=(1, 1), padding=(1, 1))
              (1): LeakyReLU(negative_slope=0.2, inplace=True)
            )
            (conv1): Sequential(
              (0): Conv2d(32, 32, kernel_size=(3, 3), stride=(1, 1), padding=(1, 1))
              (1): LeakyReLU(negative_slope=0.2, inplace=True)
            )
            (conv2): Sequential(
              (0): Conv2d(96, 32, kernel_size=(3, 3), stride=(1, 1), padding=(1, 1))
              (1): LeakyReLU(negative_slope=0.2, inplace=True)
            )
            (conv3): Sequential(
              (0): Conv2d(160, 32, kernel_size=(3, 3), stride=(1, 1), padding=(1, 1))
              (1): LeakyReLU(negative_slope=0.2, inplace=True)
            )
            (conv4): Sequential(
              (0): Conv2d(224, 64, kernel_size=(3, 3), stride=(1, 1), padding=(1, 1))
              (1): LeakyReLU(negative_slope=0.2, inplace=True)
            )
            (conv5): Sequential(
              (0): Conv2d(32, 32, kernel_size=(5, 5), stride=(1, 1), padding=(2, 2))
              (1): LeakyReLU(negative_slope=0.2, inplace=True)
            )
            (conv7): Sequential(
              (0): Conv2d(32, 32, kernel_size=(7, 7), stride=(1, 1), padding=(3, 3))
              (1): LeakyReLU(negative_slope=0.2, inplace=True)
            )
            (conv9): Sequential(
              (0): Conv2d(32, 32, kernel_size=(9, 9), stride=(1, 1), padding=(4, 4))
              (1): LeakyReLU(negative_slope=0.2, inplace=True)
            )
          )
          (2): MSDB(
            (conv_first): Sequential(
              (0): Conv2d(64, 32, kernel_size=(3, 3), stride=(1, 1), padding=(1, 1))
              (1): LeakyReLU(negative_slope=0.2, inplace=True)
            )
            (conv1): Sequential(
              (0): Conv2d(32, 32, kernel_size=(3, 3), stride=(1, 1), padding=(1, 1))
              (1): LeakyReLU(negative_slope=0.2, inplace=True)
            )
            (conv2): Sequential(
              (0): Conv2d(96, 32, kernel_size=(3, 3), stride=(1, 1), padding=(1, 1))
              (1): LeakyReLU(negative_slope=0.2, inplace=True)
            )
            (conv3): Sequential(
              (0): Conv2d(160, 32, kernel_size=(3, 3), stride=(1, 1), padding=(1, 1))
              (1): LeakyReLU(negative_slope=0.2, inplace=True)
            )
            (conv4): Sequential(
              (0): Conv2d(224, 64, kernel_size=(3, 3), stride=(1, 1), padding=(1, 1))
              (1): LeakyReLU(negative_slope=0.2, inplace=True)
            )
            (conv5): Sequential(
              (0): Conv2d(32, 32, kernel_size=(5, 5), stride=(1, 1), padding=(2, 2))
              (1): LeakyReLU(negative_slope=0.2, inplace=True)
            )
            (conv7): Sequential(
              (0): Conv2d(32, 32, kernel_size=(7, 7), stride=(1, 1), padding=(3, 3))
              (1): LeakyReLU(negative_slope=0.2, inplace=True)
            )
            (conv9): Sequential(
              (0): Conv2d(32, 32, kernel_size=(9, 9), stride=(1, 1), padding=(4, 4))
              (1): LeakyReLU(negative_slope=0.2, inplace=True)
            )
          )
          (3): MSDB(
            (conv_first): Sequential(
              (0): Conv2d(64, 32, kernel_size=(3, 3), stride=(1, 1), padding=(1, 1))
              (1): LeakyReLU(negative_slope=0.2, inplace=True)
            )
            (conv1): Sequential(
              (0): Conv2d(32, 32, kernel_size=(3, 3), stride=(1, 1), padding=(1, 1))
              (1): LeakyReLU(negative_slope=0.2, inplace=True)
            )
            (conv2): Sequential(
              (0): Conv2d(96, 32, kernel_size=(3, 3), stride=(1, 1), padding=(1, 1))
              (1): LeakyReLU(negative_slope=0.2, inplace=True)
            )
            (conv3): Sequential(
              (0): Conv2d(160, 32, kernel_size=(3, 3), stride=(1, 1), padding=(1, 1))
              (1): LeakyReLU(negative_slope=0.2, inplace=True)
            )
            (conv4): Sequential(
              (0): Conv2d(224, 64, kernel_size=(3, 3), stride=(1, 1), padding=(1, 1))
              (1): LeakyReLU(negative_slope=0.2, inplace=True)
            )
            (conv5): Sequential(
              (0): Conv2d(32, 32, kernel_size=(5, 5), stride=(1, 1), padding=(2, 2))
              (1): LeakyReLU(negative_slope=0.2, inplace=True)
            )
            (conv7): Sequential(
              (0): Conv2d(32, 32, kernel_size=(7, 7), stride=(1, 1), padding=(3, 3))
              (1): LeakyReLU(negative_slope=0.2, inplace=True)
            )
            (conv9): Sequential(
              (0): Conv2d(32, 32, kernel_size=(9, 9), stride=(1, 1), padding=(4, 4))
              (1): LeakyReLU(negative_slope=0.2, inplace=True)
            )
          )
        )
      )
    )
    (IWT): IWT()
    (conv1): Sequential(
      (0): Conv2d(64, 64, kernel_size=(3, 3), stride=(1, 1), padding=(1, 1))
      (1): LeakyReLU(negative_slope=0.2, inplace=True)
    )
    (conv2): Sequential(
      (0): Conv2d(64, 256, kernel_size=(3, 3), stride=(1, 1), padding=(1, 1))
      (1): LeakyReLU(negative_slope=0.2, inplace=True)
    )
  )
  (upsampling): upsampling(
    (up): Sequential(
      (0): Conv2d(64, 64, kernel_size=(3, 3), stride=(1, 1), padding=(1, 1))
      (1): PixelShuffle(upscale_factor=2)
      (2): Conv2d(16, 64, kernel_size=(3, 3), stride=(1, 1), padding=(1, 1))
      (3): LeakyReLU(negative_slope=0.2, inplace=True)
    )
  )
  (conv): Sequential(
    (0): Conv2d(64, 64, kernel_size=(3, 3), stride=(1, 1), padding=(1, 1))
    (1): LeakyReLU(negative_slope=0.2, inplace=True)
  )
  (conv_last): Sequential(
    (0): Conv2d(64, 3, kernel_size=(3, 3), stride=(1, 1), padding=(1, 1))
  )
)
2024-03-08 09:48:57,968 INFO: Loading WFFGAN model from experiments/WFFGAN/models/net_g_500000.pth, with param key: [params_ema].
2024-03-08 09:48:57,991 INFO: Model [ESRGANModel] is created.
2024-03-08 09:48:57,991 INFO: Testing set5...
2024-03-08 09:49:01,052 INFO: Validation set5
	 # PSNR: 30.1326	Best: 30.1326 @ WFFGAN_mod12_500000iter iter
…
